Code/models/CartPole-v0_best.pt (torch, 9695 bytes, 4 tensors)

weight f4 [256, 4]
00000000: d2c1 0a3e 39d4 b13e 73c3 203e 07f3 e53d
00000010: 93be 733e dc5e 843e 80c6 6f3e b6ad 113e
00000020: 90cf 11bf 6735 8dbe 8a3c 2abf 12b3 ecbe
00000030: 6009 583e 47ef 1ebf 6a9b 553c cc33 c0bc
00000040: e28b b63e 5025 483f a1bd 243f 069e 173f
00000050: d62f 0a3e c596 8d3e 65b5 bdbd c132 cfbc
00000060: db2f 533d feb8 4abe 2f8f 1a3e e7b3 89be
00000070: 7bac 4ebe 2858 14bf 619d 9f3e ba9e aa3d
00000080: f837 de3d 2988 513e 93ef 483d 4719 8dbd
00000090: 2048 3abf 9141 1ebf 1157 90bf df4c 03bf
000000a0: bcf7 5bbf 4fe6 903e fcdf 903f b75b cc3e
000000b0: da52 103f 0f95 9bbe 1fba b1bf 1626 2dbf
000000c0: 21ea 0a3f c5cd 1cbd 7d4f 49be 31ec 863d
000000d0: 7388 f23e e5aa 8a3e 7d1c b9be 6c6b dcbe
000000e0: 1fa4 5abe 2105 a03e 690a 6e3f 7baf 1d3f
000000f0: 7dd1 23bf 7b12 ef3e c631 483f 5ec8 2c3f
00000100: 87d3 9c3e f050 793e f734 10bd e73e e2bd
00000110: 0aa3 0b3f 1e66 6d3e d1b2 3bbf a42f ecbe
00000120: 2f57 90be 46c4 933e 47d2 aa3f 8ca7 e03e
00000130: b0ff 023e fc1c 033f 64d3 343f e66f 4b3f
00000140: c603 c0be 6afd e53d 5df4 183f cb3f 143f
00000150: 88c1 1c3d f4d6 94bd 5187 f43d 346e 323e
00000160: a35d a03d 14bf fabd 62c0 b3bd 2bd8 593e
00000170: 4cd1 aabe f7cb 933e b923 0b3f 6b4b 9cbe
00000180: 972d c3be 7ebd 843d 9371 273e 07d5 b7be
00000190: 8a73 c4be d1db d1be 23d1 9cbf 46ef a3be
000001a0: 08fc da3e e6c6 d73e ef42 173f 5e8b 0d3f
000001b0: 5879 7b3c 0be8 a43e f6ee 143c 3594 973e
000001c0: 018d e6be e677 19be 9889 b0bf 8d1a bfbe
000001d0: fb80 413c 2803 883e f130 49be 06b6 913e
000001e0: 0e3f 2d3e 7729 743e 1a82 a6be 5d89 773e
000001f0: b570 cbbd 3d3e 1c3d e692 8ebe 1e9e 6f3e
00000200: f267 293f 4d12 41be 593d 39bf da28 2dbf
00000210: de3e 8bbe 60f7 e9bd bae9 46be 5c9d 283e
00000220: 455c bfbe b948 a43d 28bf 613e 6629 903e
00000230: 8eed b33d 58aa 9e3e b72a 063f 92d1 ec3b
00000240: ac44 67bd 4aa2 493e 5715 a93e 109a b83e
00000250: 8faf 033f 286f a5bd 6bb0 173f 1da8 94bd
00000260: cd92 5bbe 084e e13e a4f9 fb3e 65d5 203f
00000270: d886 87be 2c1e f03e 78f5 93bd 6ac3 d83b
00000280: 329b 533e 24d7 2bbe 0339 d53e b8e1 4e3e
00000290: e939 08be 60c5 4fbe 648a 283e be59 583e
000002a0: 23b1 bd3d 462a 543d e543 6d3e 189a be3d
000002b0: f16d 8fbe f4eb 0d3f 7686 1c3f a0d8 0dbf
000002c0: 12c4 0b3c ca9d fbbe b88c 023f 20c3 dcbe
000002d0: 4fb9 55bf 0221 a7be 7b62 2c3e 40ac 54be
000002e0: 1889 5a3e cfe7 663e a451 9c3e 279d 02be
000002f0: 1ef0 193f b63d 1d3e 1cfb 97bf 0391 9fbe
00000300: f642 8a3f be5e 9e3e 7969 f2be 4b8e 05bf
00000310: 60d8 18bf 9da8 903d 9118 9dbe c58e b73d
00000320: 8e16 a6be 77b4 583d 1f13 6d3f d926 4e3f
00000330: dabe 753e 6170 1ebc 3273 b23f a4f0 b33e
00000340: a4a2 33be be7e a63e 578c c6be 3531 b3bd
00000350: 0213 013f 43d1 a8bd fd9d f23e b89f dc3d
00000360: 84b5 c1bc 8e15 fd3e 4ef6 9c3f 81db 4f3f
00000370: f0f4 293e dcf0 2fbe 60dd 27bd 208c 1ebd
00000380: 26f4 01be 03ce e7be 69e1 87be 1cc4 f9be
00000390: 4bfd fd3d ed51 debe 632b 9f3e 279e 01bd
000003a0: 95f2 03be 9275 05bf 3943 743e 9ef2 9e3e
000003b0: 4319 c63e 12c7 203f d28f 3b3f 2968 ee3e
000003c0: dc60 893f ad15 97be 5f01 34bf 11df c6be
000003d0: 65f4 0b3e df62 3bbe 944c 0bbe c077 a8bc
000003e0: 6c54 833d 7a5c 40be 29a1 abbe 4d57 cdbe
000003f0: ec43 80be 1cce 52be fe51 6dbe b4a1 91be
0.13550499 0.34732226 0.15699558 0.112279944 0.23803167 0.25853622 0.23415565 0.14226422
-0.5695734 -0.27579805 -0.66498625 -0.4623037 0.21097326 -0.6208386 0.013037542 -0.023462199
0.35653597 0.78181934 0.6435185 0.592255 0.1349481 0.2765409 -0.09263114 -0.025292756
0.05155931 -0.19797131 0.15093683 -0.26895067 -0.20182984 -0.57947016 0.31174758 0.08331056
0.10850519 0.20462097 0.0490566 -0.06889587 -0.72766304 -0.61818796 -1.127657 -0.5128917
-0.8592489 0.28300712 1.1318355 0.39913723 0.5637642 -0.3038716 -1.3884925 -0.6763624
0.542635 -0.038282175 -0.19659229 0.06588019 0.47369727 0.27083507 -0.36154547 -0.43050706
-0.2135167 0.31253913 0.92984635 0.61595887 -0.6399153 0.46693787 0.7820095 0.67493236
0.30630133 0.24347281 -0.03520676 -0.11047154 0.5454565 0.23183486 -0.7331973 -0.46130097
-0.28191516 0.28860682 1.3345422 0.43877828 0.1279285 0.512161 0.70635056 0.7946762
-0.3750288 0.112299755 0.5974787 0.5790984 0.038270503 -0.072675616 0.11939872 0.17424852
0.0783036 -0.122434765 -0.087769285 0.21273868 -0.33362806 0.2886655 0.54351383 -0.3052629
-0.3812072 0.06481455 0.16351919 -0.35904714 -0.383694 -0.4098802 -1.2251323 -0.3201849
0.4277041 0.42143935 0.5908651 0.5529078 0.015348755 0.32208285 0.009090176 0.2960526
-0.45029452 -0.14987144 -1.379199 -0.37324944 0.0118105365 0.26564908 -0.19647576 0.28459185
0.16918585 0.23843943 -0.32521135 0.24173494 -0.099336065 0.038145293 -0.2784645 0.2340016
0.6617423 -0.18854637 -0.72359234 -0.6764046 -0.271964 -0.11424136 -0.19425097 0.16466278
-0.37375084 0.08021683 0.22045577 0.28156585 0.08785544 0.30989337 0.5240893 0.007227131
-0.056461975 0.19690815 0.33024094 0.3605504 0.51439756 -0.08077842 0.5925357 -0.072586276
-0.21442719 0.44004846 0.49213898 0.62825614 -0.26470065 0.4689802 -0.07224554 0.006615092
0.20664671 -0.16781288 0.4164506 0.20203292 -0.13303341 -0.20290136 0.16459042 0.21127984
0.09262302 0.051798128 0.23170431 0.09306735 -0.28013566 0.5543816 0.6114267 -0.5540867
0.0085306335 -0.4914382 0.5099597 -0.4311762 -0.83485883 -0.3264237 0.16834442 -0.20768833
0.2134136 0.22549365 0.30531037 -0.12755261 0.60132015 0.15355572 -1.1873507 -0.31165323
1.0801685 0.30931658 -0.47346094 -0.52170247 -0.5970516 0.070634104 -0.30682805 0.08962778
-0.32439083 0.05290648 0.926073 0.80528027 0.23998585 -0.009670348 1.3941405 0.35144532
-0.17542511 0.32518572 -0.38778946 -0.0874962 0.5041963 -0.082430385 0.4738616 0.107726514
-0.023646124 0.49430507 1.2262666 0.8119431 0.16597342 -0.17181724 -0.040982604 -0.038707852
-0.12690791 -0.45274362 -0.26539162 -0.48782432 0.124018274 -0.4342188 0.3108779 -0.031644966
-0.12885506 -0.52132523 0.23853768 0.31044477 0.38691148 0.6280376 0.7326633 0.46563843
1.0732684 -0.29508725 -0.7031459 -0.3884206 0.13667448 -0.18299435 -0.13603431 -0.020564914
0.064125866 -0.18785277 -0.33521393 -0.40105668 -0.2505182 -0.20586437 -0.23175809 -0.28443682

bias f4 [256]
00000000: 1372 073f 320b 35be 8215 64be f503 423e
00000010: 1864 5cbc 11e0 c4bd 183a f9be 2602 c13e
00000020: 9f96 5a3f d333 35bd 7a6b 56bd 5f8f f6be
00000030: d12d 84bb 3db8 f03e d379 01bf be16 da3e
00000040: 118b 543f a4db 9fbe c533 793e ed5e 50be
00000050: c35a 4ebe 7044 3d3f 74dd 6e3f c239 3e3f
00000060: 7b6a 133f afee 2c3b 3932 a3bd 2c7d 473f
00000070: 6b79 91bd d69a 163f 0572 173f 89e8 583f
00000080: 5db5 5fbe 8f02 6c3f acf0 6c3f c39b 433f
00000090: d16a 683f 853e 733c 88b7 f7be a0af eb3e
000000a0: d997 4d3f 94db 493f 7520 f33e 2942 7c3e
000000b0: 50bb 5a3f cc13 8cbe 0401 2c3f def6 f83c
000000c0: 04ba 9abd b7c2 a4bc 05a5 90bd d669 65be
000000d0: eaf0 673f 60f4 4b3f 235f 8fbe 1696 d0be
000000e0: 4ce1 31be e198 633f 7bcb 37be 2ff6 8dbb
000000f0: 93de 76bc c8cc 153f 4811 583f c186 613f
00000100: 299d e23e 04be 1f3f 8405 9b3e 6a6c 693f
00000110: a8ea 163f 170d e83b 76ff 49be f165 353f
00000120: f6c6 63bd a967 fabe 7fc1 233f 7389 1f3f
00000130: b9fa 7dbe 9063 b73c 4754 2c3e 9e83 77be
00000140: c19d 3bbe bd6f 513f b79e bf3e ecf3 e4be
00000150: 4961 6d3e 9816 b4be 80ef 9bbe b493 923e
00000160: 4772 2b3f a4a6 b5be 01c6 4f3f e8ce 193f
00000170: 7895 2b3f c399 5c3f 4f9f 413f 2dc9 4f3f
00000180: ca92 88be 292d ed3e 51b8 1e3f d292 2d3f
00000190: 3a93 1c3f 9f77 553e 18cd 44be 1eed 8abe
000001a0: a938 d7be 8011 6c3f 93d0 09bf a937 3f3f
000001b0: 9deb 623f bc03 f53e 83e1 e63c 5838 68be
000001c0: 2055 5f3f 0d3a efbe ea83 1bbf 5b20 1a3f
000001d0: db89 c6be 636f 463f 3818 85be cd78 e1be
000001e0: dd33 bcbe 417f 4e3f da0f 463f 7642 0f3f
000001f0: 5d27 703c 01d3 de3e 6f29 2e3f 1ea9 4c3f
00000200: acb7 223f f73e 9abe df36 0d3f e315 9cbe
00000210: 68bf 4fbe 800e debd 40fa 6cbc ef35 0a3f
00000220: 199b 433f 9beb cdbc b48f 0cbf 3f4f 923e
00000230: 32f0 5b3f 07f7 3d3e c912 cbbd fdbf e53e
00000240: eb4e 023f 1b6d cbbd b3bd 9cbd 2dc6 38be
00000250: 5bcc 92bd e6ed 4d3f e491 503e 10e3 91be
00000260: 7190 e7be 7559 0c3f c63e 333f 176f dfbe
00000270: a868 4a3f 8f85 d1be 46dc 60bc e391 90bd
00000280: feee 213f c6ff 2f3f ed26 063f 9384 d63e
00000290: b840 c93e 639a 01bf b2ce 403f 0830 09be
000002a0: 8a28 843e 451c a5bb f717 113f ca54 19be
000002b0: 15b9 da3e 497d 5cbe 8b4c 03be 9d44 293f
000002c0: 2bad 5e3f 0483 75be 4521 bc3c 424d e8bd
000002d0: 7a68 4abe a304 efbe 41d8 193f 06d1 333f
000002e0: acd6 a2be 4654 cebe 706d 373f 4d61 903e
000002f0: e3f4 90be 3396 483f 0dd3 4a3f 4ad7 303f
00000300: d0eb f5be e034 ea3e 5fe9 d0be e53d 2f3f
00000310: 4345 cebe 174b aabe d092 acbd 2029 613f
00000320: 634f ff3c adf0 4b3f ffbe 3e3f a2db 723b
00000330: 5032 b63e dafc 93bb 6409 3fbe fca9 7abe
00000340: bc2d d8bb 2413 aabe 364a 1abd 539f d1be
00000350: 73d3 0dbf 62fc 65be ecef 503f 0e3b 0fbf
00000360: c72a 58be 6e41 e0bd 4de7 cf3d 44ce d4be
00000370: 998e 0d3f e38a a4be b4d0 f6bc 9e0c 5abc
00000380: adcd 37bb e96d c9be 9c24 71bb 18b3 183f
00000390: 05a0 573f 1ee4 ae3e f6b8 f03e cd86 bebe
000003a0: eacc b3be f58d 2a3f 89fa 3cbd 955f a9be
000003b0: 488b db3e 711a 3e3f ba08 49bd ea94 3b3f
000003c0: f260 eabc 182c b83b 430d c9be 4278 cabe
000003d0: 3abb 283f 7bc0 583f 0e58 323f 142d b9be
000003e0: f390 2b3f 9f15 a8bc b2d0 6a3f 38b8 a6bc
000003f0: a00a 223f a0b7 cdbe 090f 363f 7478 73be
0.5290844 -0.17680052 -0.2227383 0.18946822 -0.013451599 -0.0961305 -0.48677135 0.37696952
0.8538608 -0.044238877 -0.05234859 -0.48156258 -0.004033782 0.47015563 -0.50576514 0.42595476
0.830247 -0.3122226 0.24336155 -0.20348711 -0.2015181 0.7393255 0.9330666 0.7430688
0.5758435 0.0026387384 -0.079685636 0.7792537 -0.07103237 0.5883001 0.59158355 0.8472982
-0.21846528 0.92191404 0.92554736 0.7640955 0.9078799 0.014846449 -0.4838221 0.4603243
0.80309826 0.78850675 0.474857 0.24634613 0.85442066 -0.27358854 0.6718905 0.030391153
-0.07555011 -0.020112379 -0.07062725 -0.22403654 0.9060198 0.7966976 -0.2800227 -0.40739506
-0.173711 0.8890515 -0.17948715 -0.004332326 -0.015067714 0.58515596 0.8440137 0.88096243
0.4426053 0.62399316 0.30277646 0.9118105 0.5895181 0.0070816386 -0.19726357 0.70858675
-0.055609666 -0.4890721 0.63967127 0.62319106 -0.24802674 0.022386342 0.16829024 -0.24171302
-0.18321897 0.81811124 0.37425777 -0.44717348 0.23181643 -0.35173488 -0.30456161 0.28628314
0.6697125 -0.354787 0.81161505 0.6008134 0.67024946 0.8617212 0.7563371 0.81166345
-0.2667449 0.46323517 0.61999995 0.67802155 0.6116215 0.20846413 -0.19218862 -0.2713403
-0.42035416 0.922142 -0.53833884 0.74694306 0.8864077 0.47854412 0.028183704 -0.22677743
0.87239265 -0.46723977 -0.6074816 0.6020562 -0.3877705 0.7751371 -0.2599504 -0.44037476
-0.3675832 0.80662924 0.7736794 0.55960786 0.014657822 0.43520358 0.6803197 0.7994555
0.6356151 -0.30126163 0.5516185 -0.30485448 -0.2028786 -0.108426094 -0.014463961 0.53988546
0.76408535 -0.02513676 -0.54906774 0.28576085 0.85913384 0.18551265 -0.09915692 0.44873038
0.5090167 -0.099329196 -0.0765337 -0.18044348 -0.07167884 0.8044113 0.20368153 -0.28493547
-0.45227388 0.54824 0.7001766 -0.43639442 0.7906594 -0.4092221 -0.013724392 -0.07059076
0.632553 0.68749654 0.52403146 0.4189802 0.3930719 -0.506262 0.7531539 -0.13397229
0.2581218 -0.0050387704 0.5667719 -0.1497375 0.4271933 -0.21532167 -0.12822168 0.6612032
0.86982983 -0.2397576 0.022965083 -0.11342861 -0.19766417 -0.46683225 0.600956 0.7024082
-0.31804407 -0.4029867 0.71651363 0.28199235 -0.28311834 0.78354186 0.7922829 0.69078505
-0.48031473 0.45743465 -0.40803048 0.6845382 -0.40287217 -0.33260414 -0.0842644 0.87953377
0.031165784 0.7966412 0.74510187 0.003705718 0.3558526 -0.0045162262 -0.18655926 -0.24478906
-0.006597249 -0.33217728 -0.03766843 -0.40941867 -0.5540077 -0.22459558 0.8161609 -0.55949485
-0.21110068 -0.1094998 0.10151539 -0.41563618 0.5529571 -0.32137212 -0.030128814 -0.013308672
-0.0028046176 -0.39341667 -0.0036795503 0.59648275 0.84228545 0.34158415 0.47016114 -0.3721222
-0.35117275 0.6662286 -0.046137366 -0.33080736 0.428797 0.74259096 -0.049080588 0.732741
-0.02861068 0.0056204908 -0.3926793 -0.39544874 0.65910685 0.846687 0.6966561 -0.36167204
0.6701805 -0.020518122 0.91724694 -0.020351514 0.6329746 -0.40179157 0.7111669 -0.23776418

weight f4 [2, 256]
00000000: 8e99 833e 7490 c53d 5166 a7be 8261 473e
00000010: 7ae4 03bf ac36 c0bd bb0d 97bc 88fb 3dbc
00000020: 7b6a 803e cf30 c6be b89d 4bbf 9699 51bf
00000030: 7cbf ddbd e631 f23d 44f8 0dbf ce13 05bf
00000040: e1e1 753e f16e afbe 6509 15bf a9d4 10bf
00000050: 5ffc 42be 878b 9f3e d366 a53e 045e 6b3e
00000060: 1f41 433e 4d36 6bbe 116f 06be 81fb 8f3e
00000070: 87f7 69be 1695 5a3e b9bc 7c3e 08de b43e
00000080: 9871 b9be 12fc 783e 4e77 813e 8e3d a23e
00000090: 3256 a63e 28ae bdbd 7aa3 77be 2b97 5c3e
000000a0: 94b5 783e b66c 433e a39a c73e 7fba 093e
000000b0: e8d6 893e 41d1 88be ce06 5d3e 6b8e 12be
000000c0: a954 8bbe 07d8 24be 5519 1dbe 38e3 a3be
000000d0: 6135 783e 91a5 cb3e 4e06 08bf e62d 7dbd
000000e0: f70c cdbe c013 923e 8483 8fbd 5cc3 0bbf
000000f0: 26b5 cbbe 350d 9c3e 48e9 823e b78a 633e
00000100: ef0b 6f3e fce5 3c3e b3f6 bfbd 955b 683e
00000110: 47e1 a23e a5c0 1bbf 897e 96bc 8cc7 513e
00000120: 0865 983e f3e7 cb3d b096 783e 0ab2 a33e
00000130: deb6 963d 0937 1abf 3d9d 94bd 8bdc 003f
00000140: 1054 20bf 1e59 6b3e 379f c0be 2877 09bf
00000150: e231 24bf f014 34bf f686 1fbf 6b92 063f
00000160: 982d 253e 3943 babe b172 6a3e ead6 6b3e
00000170: d64a bc3e 6a44 833e 243a 843e 7cb5 483e
00000180: 2078 f33c e83f a53e 27cc 853e 6940 6a3e
00000190: 09eb 9c3e 85c1 143f 82c1 27bd 1e9e d8bc
000001a0: d049 10bf a764 9d3e 41a0 30bf 78b7 833e
000001b0: 3826 a03e f78e cb3d 0998 b3be 2176 21be
000001c0: 5263 8e3e 3f02 71bf a817 d7be 75ac 923e
000001d0: c366 d6be 6ee1 ac3e efa6 5abf c176 48bf
000001e0: a94c 4bbf d2ba af3e 65bb 563e 11b9 4d3e
000001f0: 3c1e 1cbd 661b d03d 3296 893e ee4c 763e
00000200: c734 843e 0eed 1fbf 6039 723e a98e 4b3c
00000210: b513 bbbe 0678 38bf 6cee 30bf 0ff9 6a3e
00000220: 03f3 8b3e 8b86 e0be 7ff2 c7be 4643 183e
00000230: 7cad b73e f83e 773d ffcd 6cbe ea4a 873e
00000240: fb37 2e3e 90cb 1fbf 06b5 a03e ab03 20be
00000250: 9a0e 96be 8d89 8c3e 9964 fbbd 765d 81be
00000260: c340 7abd 58f5 2b3e 38bc 8a3e af85 09bf
00000270: ba21 323e 3e89 2bbe 5f18 db3e 3b8e dabd
00000280: 716f 3f3e 4875 733e a58f 9f3e 8cae 6c3e
00000290: 623e 4e3e 1ee5 37bf 1626 743e eb6e 21be
000002a0: 6389 0f3f 4b46 4cbe 6e5b 993e 93fe dcbe
000002b0: 4921 833e ff33 15bf f724 c8bd 9ff9 8d3e
000002c0: 4705 a43e 7da1 303e 28c1 32bf 78aa 9ebe
000002d0: 4de9 cebe b564 abbe 9492 9b3e d0e6 963e
000002e0: 7c58 74be 4a14 273d c48d 353e c163 f23d
000002f0: d33d 28bf bd19 833e e630 a73e 61af 9d3e
00000300: 0151 1ebf 6190 a63e e9d1 71bf 00e5 853e
00000310: 1bc2 9bbe 686b 19bf 340c 58bd cb13 923e
00000320: 94b3 3ebe 1473 7b3e 5b98 a23e 7084 c0bd
00000330: 72ac ae3d 8af0 bbbe d715 4cbf d278 4abf
00000340: c150 47bf b272 3cbe 4cf0 78be ed7e 39bf
00000350: ca23 07bf 6508 41be 68f8 923e de43 efbe
00000360: 464c d1be 1028 fcbe edcc 413e e5d8 53bf
00000370: 0319 823e 9475 3ebf e573 9bbe e50c ddbd
00000380: e056 5fbe 68c9 9cbe f165 a1be 2c2c 863e
00000390: 0ad5 9c3e 724b 1bbf be2e 993e 2975 ecbe
000003a0: 8260 3abf 40fd b93e 2498 69bf a7eb 01bf
000003b0: 5549 a8be 9cbc 5a3e 26b7 e4bc fa58 903e
000003c0: f438 18be 63c3 0abf f62d 72bf ebac 43be
000003d0: 723a b63e bca3 913e 6e05 3d3e 286c 833e
000003e0: fd7c 583e a23b 19bc b0a2 823e 4198 f1be
000003f0: 0a05 c23e a850 1cbf 0392 a23e 7175 20bf
0.2570309 0.09646693 -0.3269525 0.1947079 -0.515205 -0.09385428 -0.018439164 -0.011595614
0.25081238 -0.38709113 -0.79537535 -0.8187498 -0.10827538 0.118259236 -0.5545695 -0.51983345
0.24011947 -0.3426433 -0.5821746 -0.56574494 -0.19041584 0.31161138 0.3230501 0.22985083
0.1906781 -0.22969933 -0.13128306 0.2812157 -0.2284833 0.21345934 0.24681367 0.35325646
-0.36219478 0.24314907 0.25286335 0.31687587 0.32487637 -0.09261733 -0.24183455 0.21542041
0.24288017 0.19084439 0.38985166 0.13450049 0.26921773 -0.26722148 0.21584627 -0.1431214
-0.27213028 -0.16098033 -0.15341695 -0.32009292 0.24239112 0.39774755 -0.5313462 -0.06181135
-0.40048954 0.28530693 -0.070075065 -0.5459497 -0.39786643 0.30478826 0.25568604 0.22220884
0.23344396 0.18447107 -0.09373226 0.22691186 0.31812498 -0.6084083 -0.018370884 0.20486277
0.2976458 0.0995635 0.24276233 0.3197177 0.07359098 -0.60240227 -0.07256553 0.5033652
-0.6262827 0.22983214 -0.3762147 -0.53697443 -0.64138615 -0.7034445 -0.6231531 0.52567166
0.16130674 -0.36379412 0.22895314 0.23031202 0.36775845 0.25638133 0.25825608 0.19600481
0.029720366 0.3227532 0.26132318 0.22876133 0.30648068 0.5810779 -0.040956028 -0.026442584
-0.5636263 0.30740854 -0.6899453 0.25725913 0.3127916 0.09939378 -0.3507693 -0.15767719
0.2781015 -0.9414405 -0.42010236 0.286472 -0.41875276 0.3376574 -0.8541097 -0.78306204
-0.7941385 0.3432222 0.20969923 0.20090128 -0.03811477 0.10161476 0.26872402 0.24052784
0.25821516 -0.6247109 0.236547 0.01242415 -0.36538473 -0.7205814 -0.691138 0.22946571
0.2733384 -0.43852648 -0.39052197 0.14869413 0.35874546 0.060362786 -0.23125456 0.26424342
0.17013542 -0.62419987 0.3138811 -0.15626399 -0.29308015 0.27448693 -0.12275047 -0.25266618
-0.061096918 0.1679281 0.27096725 -0.5371961 0.17395678 -0.16751572 0.4279203 -0.106716596
0.18694855 0.23775208 0.3116428 0.2311346 0.20140985 -0.7183398 0.23842654 -0.15764968
0.5606901 -0.1994869 0.29952568 -0.43162975 0.25611332 -0.58282465 -0.097726755 0.27729508
0.32035276 0.17249103 -0.69825983 -0.30989432 -0.4041237 -0.3347527 0.30385268 0.2947297
-0.23861879 0.040790834 0.1772986 0.11835433 -0.65719336 0.25605574 0.32654494 0.30797866
-0.6184235 0.32532027 -0.9446092 0.26151276 -0.30421528 -0.59929514 -0.052746013 0.28530726
-0.18623191 0.24555618 0.31756863 -0.094002604 0.08528985 -0.36706954 -0.79720825 -0.7909061
-0.77857596 -0.18403128 -0.24310416 -0.724593 -0.52788985 -0.18850859 0.28705144 -0.46731466
-0.40878505 -0.49249315 0.18925829 -0.8275283 0.25409707 -0.7439816 -0.30361858 -0.10793475
-0.21810484 -0.3062241 -0.31523088 0.26205575 0.30631286 -0.60661995 0.29918474 -0.46183136
-0.7280351 0.36326027 -0.91247773 -0.507502 -0.32868448 0.21361011 -0.027919363 0.28192884
-0.14865476 -0.54204386 -0.9460138 -0.19108932 0.35591465 0.28445232 0.18459103 0.25668454
0.21141429 -0.0093525965 0.25514746 -0.47186473 0.3789447 -0.6106057 0.31752023 -0.626792

bias f4 [2]
00000000: a91b 9b3e 0fb7 6a3e
0.3029454 0.22921394
