Code/models/CartPole-v0_test0001.pt (torch, 10003 bytes, 4 tensors)

weight f4 [256, 4]
00000000: 2430 a23c b97c 7ebe 0936 0ebd 259e b1be
00000010: ee02 2e3e 2a4f 483e b378 c03b b27d 32be
00000020: 65cd 94be 2b03 c53c edad 8bbe 7e34 893e
00000030: 104b 883e 43c2 613e 6b87 8b3f 59e0 f23e
00000040: 9679 a63e 06e7 a93e 146e b83f 09e8 9f3e
00000050: 4a8e 15be d357 8dbd 65b4 d33e f6f6 1bbe
00000060: d672 efbe c3fb 0fbe 09ad ac3f e029 323f
00000070: f331 1f3f fd70 c1be 03b0 9abf 136b 13bf
00000080: 8a50 15bf 8705 8fbe a99d 5ebf c147 afbe
00000090: 1dd0 033f 17af 17bf 93bf 9abf 6875 1fbf
000000a0: e3e0 94bd 9c23 12be 8af3 d63e d6ff c9be
000000b0: 98f7 36bf 285f 3dbe a744 de3e b397 d93e
000000c0: a94f a93e 0807 53be a3ea 43bd 5d9e 013e
000000d0: 5f68 42bf 20a5 2bbf 5272 92bb 2a22 3cbe
000000e0: d61e 45be 7894 ddbd 2640 52bd ce34 5abe
000000f0: efa1 d53e 8694 dbbe 0945 9cbf fc3c 2cbf
00000100: 61fb 433e 0912 f93e 7f20 b6be d227 c63e
00000110: 2877 4abe 015a d63d 1175 b03f 047c 4a3f
00000120: be0f 8a3e 74a0 973e 31fa f5be c161 a23e
00000130: 264a 7b3e 575e 453d b77b 353e de10 0e3e
00000140: a8c1 e0be 8eb4 153f fb1c 713d c5c5 b0be
00000150: 9de5 11bf b702 f8be 51a1 92bf c2aa 07bf
00000160: 2523 bc3e a8fc 363e 75e2 04bf 865d e03d
00000170: 2854 5e3f c909 2f3e 11e9 70bf 9e7d e4be
00000180: 9ddc c63d 92c8 c1bc 90e9 91be 2057 113c
00000190: 5a8b 073f 8f87 9d3e 6562 bdbe ce02 49be
000001a0: 698d 7a3e 981f f2be 7608 7c3e e40a 75bd
000001b0: 0cd9 3b3e b82a 1d3e 03c9 ac3f 9f24 013f
000001c0: aa5c 91be a12a 4d3e 1596 663f 8e6f 4c3f
000001d0: e5fd 383f 842f fbbe f6ec b4bf a3a0 34bf
000001e0: e5c3 72bf ffd6 5dbe ffec 893e a81a d93d
000001f0: a267 70bf af16 8bbe f86f 443e 4cf8 2b3e
00000200: 970f 3fbd 1f62 f1be b098 59be 7213 273e
00000210: 25af 763e c550 72be db6c 3b3d 690c 6dbe
00000220: 290b babe c3ba 15bf 5338 3dbf 83b3 2ebf
00000230: c748 fdbd 10e0 163d 4a91 3cbf b9a5 0ebf
00000240: 5dc8 dcbe ef50 043f d428 b53e 1a4c 0dbd
00000250: d914 873e 3984 66be bdf8 0ebf a4d3 ea3e
00000260: 76c4 213e f49b ce3e cbd8 d5bd e292 8ebc
00000270: 9792 293f f84c f1be 81a7 91bf 9949 34bf
00000280: 591d 023f 86d2 e9be eb2d c9be b651 343d
00000290: 5d30 85be b779 3cbf d7be acbf 04f5 29bf
000002a0: c891 b33e 635b 06bf 3dee 18bf 7ac3 4cbf
000002b0: a8b2 6bbe 8a10 75be 9d1e bbbe f143 033e
000002c0: 63ff d2be 0703 8dbe 8a3c 95bf 3373 d6be
000002d0: 207f cdbe 3176 463f 20ee 3f3f 12f6 ff3e
000002e0: 1dd9 49bf d8ee b1be 2830 a93f 9c0b c63e
000002f0: acbd 1f3e 9339 e13c c89c 00bf 3f6b ac3e
00000300: 26cf 0ebc 1321 663e c4a3 813e 0fad 953e
00000310: 8681 313e 74c1 8fbe 15eb b1bf da5e 2fbf
00000320: bd58 6fbf ede2 3cbd 9f8a 973f 779d 433e
00000330: ead3 f4bb 9f1d 03bd f7f1 28be e866 09be
00000340: 1cc6 313e 4880 2fbe cf7e acbf 76f1 ebbe
00000350: 0cf0 15bd 7d24 8ebe 07a3 5fbe 744b b8bd
00000360: 07f2 713e dcbd ec3d d3c1 b73d 586d f23d
00000370: dd51 cabc ff8a 9a3e 7842 513e b67a 033f
00000380: e0e3 e3be be51 fbbe c428 75bf bf80 0dbf
00000390: 7572 fdbc de55 4c3d 6411 443c 2314 36bd
000003a0: e868 f6be 169f 22bf ab7d b9bf d145 f6be
000003b0: 97db a6bd 4615 913e 7d55 eb3d 2b30 f73d
000003c0: a7d1 4d3e 15de eebe a146 c23e 5632 69bd
000003d0: 7617 fcbd 4501 d1be 2f99 8ebe fa67 9b3d
000003e0: bd2b 6a3f 0b61 da3e ebbb 4dbf af8b 6a3e
000003f0: 602e 473d 78c4 04be 420d a3be e767 ebbd
0.019798346 -0.24852265 -0.0347195 -0.34690967 0.16993305 0.19561449 0.0058737635 -0.17430761
-0.29062954 0.024049362 -0.27281132 0.2679786 0.26619768 0.22046761 1.0900701 0.4743679
0.32514638 0.3318407 1.4408593 0.31231716 -0.1460506 -0.06901517 0.41348568 -0.15230927
-0.467673 -0.14060883 1.3490306 0.69595146 0.6218559 -0.37781516 -1.2084965 -0.5758526
-0.5832602 -0.27933905 -0.8695932 -0.3423443 0.5148943 -0.5925154 -1.2089714 -0.6228852
-0.07269456 -0.14271396 0.4198268 -0.39453 -0.7147155 -0.1849333 0.43411753 0.4249855
0.33068588 -0.20608151 -0.04783119 0.12658067 -0.7594051 -0.67048836 -0.0044691944 -0.18372408
-0.19250044 -0.10819334 -0.051330708 -0.21309206 0.41725108 -0.42886752 -1.2208568 -0.67280555
0.19138862 0.48646572 -0.35571668 0.38702255 -0.19772017 0.10466386 1.3785726 0.7909548
0.26965135 0.29614604 -0.48042443 0.31715205 0.24540004 0.048185673 0.17722975 0.13873622
-0.43897748 0.5847863 0.05886553 -0.34525886 -0.5699099 -0.4843957 -1.145548 -0.5299493
0.36745563 0.17869818 -0.51908046 0.10955338 0.8684716 0.17093576 -0.9410563 -0.44627088
0.097100474 -0.02365521 -0.28498507 0.00887087 0.5294701 0.30767485 -0.36989132 -0.19629976
0.24468006 -0.4728973 0.24612603 -0.05982484 0.18344516 0.15348327 1.3498844 0.50446504
-0.2839101 0.20035793 0.90072757 0.7985772 0.7226241 -0.4905969 -1.4134815 -0.7055761
-0.9483016 -0.21664046 0.26938626 0.106007874 -0.9390813 -0.27165744 0.19183338 0.16793936
-0.046645727 -0.47145173 -0.21249652 0.16316012 0.2409025 -0.23663624 0.04575811 -0.23149265
-0.3633664 -0.584881 -0.7391407 -0.68242663 -0.12367397 0.036834776 -0.73659194 -0.5572162
-0.43121615 0.51685995 0.35382712 -0.034496404 0.26383093 -0.22511376 -0.55848294 0.45864594
0.157976 0.40353358 -0.104417406 -0.017404024 0.66239303 -0.47129035 -1.1379243 -0.704248
0.5082603 -0.4566843 -0.39292845 0.044023238 -0.2601346 -0.7362322 -1.349574 -0.6638949
0.3507216 -0.52483195 -0.5973852 -0.79985774 -0.2301737 -0.2393209 -0.36546794 0.12818886
-0.4121047 -0.27541372 -1.16591 -0.41884765 -0.4013605 0.77524096 0.74972725 0.49992424
-0.78846914 -0.34752536 1.3217821 0.38680732 0.15599698 0.027493274 -0.5023923 0.33675572
-0.00871638 0.22473554 0.25320256 0.29233596 0.17334566 -0.2807728 -1.3899866 -0.68504107
-0.9349478 -0.04611485 1.1839179 0.19103037 -0.007471551 -0.03201067 -0.16498552 -0.13418162
0.17360729 -0.17138779 -1.3476199 -0.46082658 -0.03660588 -0.27762213 -0.21839534 -0.089987665
0.23627482 0.1155965 0.08972516 0.11837262 -0.024697239 0.3018417 0.20435512 0.5135912
-0.44509792 -0.49085802 -0.9576533 -0.55274576 -0.030938366 0.049886577 0.011967037 -0.044452798
-0.48126912 -0.63523996 -1.4491476 -0.4810014 -0.08147352 0.28336543 0.11490915 0.12069734
0.20099507 -0.4665381 0.3794451 -0.05693277 -0.12309162 -0.4082128 -0.27851245 0.07588191
0.9147299 0.42652163 -0.80364865 0.22904848 0.04862821 -0.12965572 -0.31846052 -0.11494427

bias f4 [256]
00000000: 57e9 3d3f 28bb 653f 11f0 4b3f 01a3 f1be
00000010: 06c4 c23d 79c6 ed3e afbb 3fbe 27a9 8cbe
00000020: 5494 60bd 14e5 b93e a488 4f3f b608 b5be
00000030: 0b1f 373f e43e 30be a012 303f 04bb ebbe
00000040: 286b 3f3f 20e6 4dbd 5fbb 0a3f e4fa d7be
00000050: 4009 50be f229 b3bd 2e45 0abf 58fe 88bc
00000060: 91fc dd3e ce80 873c dc72 bb3e 6eb1 2abf
00000070: ac6e 4cbe 5f8c b7be 9598 7dbd 6a48 cebd
00000080: f7cb d83d a187 fa3e 2dcc 31be 5ae7 edbe
00000090: 5e4a 053f d6b1 663e 2434 5e3f 54c1 babe
000000a0: ecee 2a3f cc9d 8c3d aeb4 dbbe 6dc2 003f
000000b0: 116c c4bd d314 183e 59e6 d2be 6150 663f
000000c0: 8498 4e3f 922c e4be 1ed5 0fbd da91 0c3f
000000d0: bda0 e2be 370c 2a3f d538 d63e 45f1 f4be
000000e0: 3842 a3bc eafa 363f 3649 793c 9bc7 5a3f
000000f0: b0a7 cb3e 0c45 0a3f 2ad8 ebbc dbdd dd3e
00000100: e567 1a3f cebd 3fbe 33ca 5c3f 8bce f0be
00000110: 0011 f3be b07f 01bf ec0f 69bc 3244 533f
00000120: 7033 6a3f aa9c 233f c800 dfbe 9809 e73e
00000130: 0a74 923e d46b c5be 4327 543f 4438 d8be
00000140: e69b 403f 481f e0be 96e2 173f 313e 413f
00000150: 8f65 85bd 53b3 c4be c0b6 5abc 2cda 493f
00000160: f570 1f3f 0cdf e7be f3ee 0abf b7b8 4a3f
00000170: d7e8 2e3f e32d 533f 8a9e 1bbe 9ff6 6dbc
00000180: 4eeb 333f cd85 a0bc fc7e 223f 5052 893c
00000190: 6acd 333f 2674 533f 33a8 66be 4496 61be
000001a0: bbc4 acbd a8e1 133f ca94 063f 7173 91be
000001b0: 4b34 e2bd 8ec7 05be 7623 94be 365e 67bd
000001c0: acd7 8a3e 6547 b7be 74c0 c3be 9474 343f
000001d0: 273d 433f 0fe0 0a3f 7db4 6c3e 2e5b 0fbd
000001e0: 25c8 aebe bfe6 f03e 7bc4 083e c469 d5bc
000001f0: 7b72 463f e25a 333f 50b2 ddbe 0c76 0e3f
00000200: 33b5 87be 8112 213f 2f2c b9be acd7 623f
00000210: adcd 09bf 5fc2 3a3f 1aef 57be fb50 9ebe
00000220: 6b12 d93e 29c9 253f 6d61 cfbc 63fb cfbe
00000230: dd67 fabe bbc2 033f a706 213f 9894 8cbd
00000240: 7428 543f 1d6c d93d 3487 4f3f 1202 403f
00000250: aeb8 9ebe 34f0 03bf 22a9 4e3f 6d86 9f3e
00000260: 3aea a2bc d57e 17bd 8127 a1bd af6b 1a3f
00000270: bd6b 6d3f f0b6 363f 25db 683f de74 413f
00000280: ea55 debe 4e1e c2be 482c 5e3f 1b90 583f
00000290: c8bb 443f 759a a93e 541f 1c3f e65c e6be
000002a0: 69e3 163f c323 12bd 0623 4abe 9cf0 26bc
000002b0: 50d5 94be 4ca8 0dbf 4b8e 153f 55db 66be
000002c0: 2333 293f 7a7b dbbe 18c6 c5be 7d7d a23b
000002d0: 7a06 b6b9 301a dcbc 1a24 10bf 8f2e d3be
000002e0: 6d60 193f 774b 203f 09d8 483f 3a36 083f
000002f0: 983d 23be 6c2e 013e f18c 38bd 2169 123f
00000300: 0d06 b8bc aed9 333a 501b bcbe 1972 143f
00000310: 5fdb 2b3f 8861 eebe a740 afbe 8c52 65be
00000320: aa2b f5bc a8df bbbc 93ae 88be 962f 99be
00000330: 81f9 b93e e211 a5be 496a 1ebd 507e cabe
00000340: b67f 403f ebaa 273f 4a7e 94be 9fd6 f1be
00000350: 3fba d33b 5fb1 e9be 3b85 613f c8fe fabc
00000360: 3b35 b1be 3520 c9be 4dcd 063f 7965 7cbe
00000370: 10fc f43e 11b3 2d3f baf9 383f bdb6 46bc
00000380: 59f1 8bbe 83ba f1be e84d 433f bd9b d9be
00000390: 0c1a 313c d732 133f 1e35 b03e 6e6f 87be
000003a0: 9268 463f 1f37 2c3f 2bc6 373f 8148 503f
000003b0: c965 2f3f a38f 1b3f c077 ec3e ab78 c2bd
000003c0: 1e1d abbe bd46 85be f666 3b3f 73a5 933e
000003d0: 7e36 543f 2541 1c3f ed89 2d3f 3a23 473f
000003e0: 3a0f 3a3f 519f 91be b9ee c9be 82c3 4c3f
000003f0: 4f2f 08bc 0735 02bf 2f6f 173f f405 623e
0.74184173 0.897387 0.7966319 -0.47194675 0.09510045 0.46440485 -0.1872394 -0.27472803
-0.054828957 0.36307585 0.8106787 -0.35358208 0.7153174 -0.17211491 0.6877842 -0.4604112
0.7477288 -0.050268292 0.54192156 -0.42183602 -0.20316029 -0.08748235 -0.5401181 -0.016722843
0.43356755 0.016540911 0.36611068 -0.66676986 -0.19964093 -0.35849282 -0.06191309 -0.10072406
0.10585778 0.48931602 -0.17363043 -0.4646557 0.520666 0.22528777 0.8679831 -0.36475623
0.66770816 0.06866035 -0.42911285 0.5029667 -0.095909245 0.14851694 -0.41191366 0.899664
0.8070147 -0.44565254 -0.035115354 0.5491005 -0.4426326 0.6642489 0.41840234 -0.47840324
-0.019929036 0.71476614 0.015215209 0.85460824 0.39776373 0.5401161 -0.028789598 0.43333325
0.6031478 -0.18724748 0.8624603 -0.4703258 -0.47473907 -0.5058546 -0.0142249875 0.8252593
0.9148474 0.63910925 -0.43555284 0.45124507 0.28604156 -0.3855883 0.8287241 -0.42230427
0.7523788 -0.43773866 0.5933012 0.7548552 -0.065135114 -0.38418064 -0.013349235 0.7884853
0.62281734 -0.4528736 -0.5427086 0.791881 0.68324035 0.8249189 -0.15197197 -0.014524131
0.7028092 -0.019595051 0.6347501 0.016762882 0.7023531 0.82599103 -0.225251 -0.22029978
-0.08435961 0.577662 0.52570784 -0.28408387 -0.1104513 -0.13064405 -0.28933305 -0.05648633
0.2711767 -0.35796657 -0.38232768 0.70490384 0.76265186 0.54248136 0.23115726 -0.034999065
-0.34137073 0.47051045 0.13356201 -0.02605141 0.77518433 0.7006055 -0.43300104 0.55648875
-0.26505432 0.6291886 -0.36166522 0.8861034 -0.5382946 0.72952837 -0.21087304 -0.30921158
0.42396864 0.6476007 -0.02531501 -0.4062148 -0.48907366 0.5146901 0.62900776 -0.068642795
0.82874227 0.10616324 0.8106568 0.7500316 -0.31000274 -0.51538396 0.80726826 0.31157246
-0.019887079 -0.03698619 -0.07868863 0.6032056 0.9274252 0.7137289 0.9095939 0.7556895
-0.43424922 -0.37913746 0.8678632 0.8459489 0.7684903 0.33125654 0.609853 -0.4499275
0.5894075 -0.035678636 -0.19739923 -0.010189202 -0.29068995 -0.55334926 0.58420247 -0.22544606
0.66093653 -0.42867643 -0.38627696 0.004958807 -0.0003471857 -0.026867956 -0.56305087 -0.4124646
0.5991276 0.6261515 0.78454643 0.53207743 -0.15941465 0.12615365 -0.045056287 0.57191664
-0.022463823 0.0006860745 -0.36739588 0.579866 0.6713161 -0.46558785 -0.34229013 -0.2239477
-0.029928047 -0.022933796 -0.2669569 -0.29919118 0.3632317 -0.32240206 -0.03867558 -0.39549494
0.7519487 0.65495175 -0.290026 -0.47234055 0.0064614112 -0.45643136 0.8809392 -0.030639067
-0.34610924 -0.39282385 0.52657014 -0.24648084 0.47848558 0.6785136 0.7225605 -0.012128529
-0.2733257 -0.4721261 0.7629075 -0.4250163 0.010809433 0.5749945 0.34415525 -0.26452202
0.7750331 0.6727161 0.71786755 0.8136063 0.68514687 0.6076605 0.46185112 -0.09495672
-0.33420652 -0.26030532 0.7320398 0.28837165 0.8289565 0.610369 0.67788583 0.77788126
0.72679484 -0.2844186 -0.39439943 0.7998582 -0.0083120605 -0.50862163 0.5915403 0.22072583

weight f4 [2, 256]
00000000: b308 a93e d02f a03e 72d1 873e 058a 16bf
00000010: daa0 e7be fc06 ae3e 8529 dabe 05ce 51bf
00000020: 6136 8dbe afe1 1cbe 29db 5f3e e96f 7bbe
00000030: 9a6e 873e 2ef4 58be 3438 8c3e 5ccf 3dbf
00000040: e9fd a03e 1aa6 b4bd 25c2 8d3e 5339 8d3d
00000050: 4f1e 343f a89b d1be 643c 7dba e1fb 6abe
00000060: 5fb4 9d3e 2a09 173d 710d 303e 8485 02bf
00000070: 3011 9bbe 6cf9 1abf fc8f 60be d005 61be
00000080: 899b 0f3e 891c 8b3e 8f55 cebe 3876 88be
00000090: 106a 8a3e c00d 483e 73b1 b63e 3fbc 33bf
000000a0: ee28 903e b6dd 8abe 7760 0ebf b17b 103e
000000b0: 4f91 04bf a783 06bf 119d 99be 4146 8a3e
000000c0: 6352 8a3e 1ab9 27bf ac2f 12bf 9367 523e
000000d0: f09c 25bf 6c26 993e acf3 353e 29ae 99be
000000e0: 948f 96be 2d9d 7f3e ce7a c4be 1be1 a53e
000000f0: 80d3 123e 55ea 453e 5ed5 d3be b651 843e
00000100: e018 973e d04f 14be 1104 7b3e 56fb 02be
00000110: 61f5 00bf 6300 08bf cd71 94be 5d73 a23e
00000120: 936b 6f3e b545 b43e d72c 57bf 008e ddbe
00000130: 93ca 9a3d 8f49 55bf 0c14 a03e 0c74 d73c
00000140: 8f33 623e 2ec8 4e3e fb9b 3c3e c6a2 763e
00000150: ecf1 15bf 12a6 4fbf 0066 bcbe 9d03 a03e
00000160: fec0 683e 31fa 05bf ad8c 54bf c180 6b3e
00000170: 8998 583e 7226 a53e 0e19 a1be db05 65bc
00000180: 481e 903e 6bd4 a2be 5aa7 6a3e ce9b b9be
00000190: 5411 853e cdde 9b3e 3911 11bf 8f93 48be
000001a0: 55fc 4b3e 3254 183e 70a3 8d3e 79d3 dd3e
000001b0: afa0 70be 360c 05bf 6cc8 02bf dfdf 803e
000001c0: 4400 ab3c ec2b 3fbf aa7e dbbe a09c 8b3e
000001d0: f161 8d3e b612 a03e ece6 bbbe f4cc 2dbf
000001e0: dad4 9c3d 66af be3e 86f5 d33d f2dd 5bbe
000001f0: f791 9b3e ee26 903e 8d95 08bf f616 363e
00000200: b12d 743b 1507 4e3e 5849 a2be 439b 8e3e
00000210: e93b 98bd ff2d 873e 2ccd 0abf f80d 2dbf
00000220: f4f3 433e f46f ac3e 9a2c 64be 292d 43bf
00000230: c2d2 38bf fed2 853e 9ef8 963e 9860 02bf
00000240: 9f88 813e 26bf 3a3e 14f3 893e 809c 8d3e
00000250: 2a0d 2a3d 191d 0abf 0d7a 973e bad7 003e
00000260: a061 2cbf ca67 2dbf 111d 40bf e362 ae3e
00000270: 6464 713e 1362 763e 748a 893e caa9 7a3e
00000280: f1e9 56be 28a2 e6be 56f3 943e 93d7 963e
00000290: 4329 8e3e 59b0 0b3e a526 463e 18f1 eebc
000002a0: d08a 323e 9bcf 38be 8e60 2ebf 6381 d5be
000002b0: 0d5a d5be 903e cdbe 80af a23e 8288 20bf
000002c0: 2d5b bc3e 00e4 a4ba 7b86 f8be 65c6 b9be
000002d0: 83cb 603e 59ad bdbe 3a37 6c3e b993 00bf
000002e0: 0419 8a3e f363 9d3e 8909 ac3e 2b81 643e
000002f0: 9739 04bf 42cb 0a3e c49c 623e 4d0b 6e3e
00000300: c6b1 25bf fa6b c8bd 743f 43bf 9654 a03e
00000310: c49b 953e e804 b5bd de5e a3be 93d5 e6bd
00000320: 1181 07bf ef89 1cbf 4c0b b7be 1cb3 28bf
00000330: 42d8 273e 2ef2 21bf db5c aabe efa8 36bf
00000340: 09d7 933e 4e56 823e df41 99be 3196 31bf
00000350: c938 61be aa52 a73e e6c1 ad3e 9b7c 00bf
00000360: a9d8 9c3d f8eb 32be ee78 973e 736c 04be
00000370: 8834 2c3e 9570 803e 4dc7 743e 6964 d4be
00000380: 2f85 3dbf 50e8 14bf 9279 9c3e da3b f0be
00000390: 2daa 043e 9636 873e c3b4 943e e9c6 16be
000003a0: 53a4 b13e e177 7f3e 281a 9f3e d905 8d3e
000003b0: 7345 763e c5c8 463e aee6 b73e 11a1 ddbe
000003c0: 2525 01bf 951f 123f 9877 953e 5d61 cabe
000003d0: 0e1f 8b3e 4136 8e3e 9f39 893e 90a2 853e
000003e0: ce16 993e 50ac d5be 6624 0ebf 71ce 6e3e
000003f0: 132d ffbe 5e73 3a3e 2762 a73e e7d2 273d
0.3301445 0.31286478 0.26526982 -0.5880435 -0.45239908 0.33989704 -0.42609802 -0.81954986
-0.2758055 -0.15320466 0.21860947 -0.24554409 0.2645157 -0.21186897 0.2738663 -0.7414453
0.31443718 -0.08820744 0.27687183 0.06895699 0.7035875 -0.4093907 -0.0009660183 -0.22947647
0.30801675 0.036873974 0.17192627 -0.5098498 -0.3028655 -0.6053684 -0.21929926 -0.21974874
0.14024176 0.27170208 -0.4029965 -0.26652694 0.27034044 0.19536495 0.35682258 -0.70209116
0.28156227 -0.27122277 -0.55615944 0.14109685 -0.51784223 -0.52544636 -0.30002645 0.27006724
0.2701598 -0.6551682 -0.5710399 0.20547323 -0.6469259 0.29912126 0.17768735 -0.30015686
-0.29406416 0.24962302 -0.38374943 0.32398304 0.14338493 0.19327672 -0.41373724 0.2584359
0.29511166 -0.14483571 0.2451327 -0.1279119 -0.5037442 -0.5312559 -0.28993073 0.3172864
0.2338088 0.35209432 -0.84052795 -0.432724 0.07558169 -0.83315367 0.31265295 0.026300453
0.2208998 0.2019355 0.18418877 0.2408553 -0.5857227 -0.8111278 -0.3679657 0.31252757
0.2272987 -0.52334887 -0.83027154 0.22998334 0.21151938 0.32255894 -0.31464428 -0.013978447
0.28148103 -0.31802687 0.22915402 -0.36251682 0.25989783 0.3044342 -0.56666905 -0.19587539
0.19920476 0.14875868 0.27663755 0.43325403 -0.23498796 -0.5197176 -0.5108707 0.251708
0.02087415 -0.74676394 -0.42870075 0.27267933 0.27613786 0.31264275 -0.36699617 -0.6789086
0.07657786 0.37243193 0.10349564 -0.21471384 0.303848 0.281547 -0.53353196 0.17782196
0.003725868 0.20119889 -0.31696582 0.2785283 -0.07433302 0.2640228 -0.5421932 -0.6759944
0.1913603 0.33679163 -0.22282639 -0.76240784 -0.7219659 0.26137537 0.29486555 -0.5092864
0.25299546 0.1823698 0.26943266 0.27658463 0.04151646 -0.5395065 0.29585305 0.12582293
-0.67336464 -0.67736495 -0.7504435 0.3405982 0.23573452 0.2406085 0.26863444 0.24478832
-0.20987679 -0.4504559 0.290919 0.29461345 0.27765855 0.1364149 0.19350679 -0.029167697
0.17435765 -0.18047945 -0.6811608 -0.41700277 -0.41670266 -0.40086794 0.3177452 -0.62708294
0.36788312 -0.0012580156 -0.485401 -0.36284176 0.21952634 -0.37046316 0.23067942 -0.50225407
0.2697221 0.30740318 0.33601025 0.22314899 -0.51650375 0.13554099 0.22130114 0.23246498
-0.64724386 -0.0978622 -0.76268697 0.31314534 0.29220402 -0.088388264 -0.31908315 -0.11271205
-0.52931315 -0.6114797 -0.35750806 -0.658983 0.1639109 -0.6326016 -0.33273968 -0.7135152
0.28874996 0.2545647 -0.29933068 -0.693698 -0.21994318 0.32680255 0.33936995 -0.5019013
0.07658512 -0.17472827 0.2958445 -0.12931995 0.16816914 0.25085893 0.23904152 -0.41482857
-0.7403135 -0.5816698 0.305615 -0.46920663 0.12955542 0.26408833 0.2904416 -0.14724316
0.34695682 0.24948074 0.31074643 0.27543524 0.2404993 0.19412525 0.35918182 -0.43286946
-0.50447303 0.5707944 0.29192805 -0.39527407 0.2717213 0.27775767 0.26801774 0.26100588
0.2990021 -0.41733027 -0.5552429 0.23320939 -0.49839076 0.18208072 0.32692072 0.040972617

bias f4 [2]
00000000: 4802 653e 5a48 9e3e
0.22364151 0.30914575
