Code/models/CartPole-v0_test01.pt (torch, 10003 bytes, 4 tensors)

weight f4 [256, 4]
0	0x3d14c28b	0.036318343
1	0xbeaf31e8	-0.34217763
2	0x3dba507d	0.09097383
3	0xbe1681bf	-0.14697932
4	0x3ca49bb3	0.020093774
5	0xbea01807	-0.3126833
6	0x3d4e63b0	0.05038804
7	0xbeaae289	-0.33375958
8	0xbd625d6c	-0.055264875
9	0x3c499d9a	0.012305642
10	0x3c3fadad	0.011699122
11	0x3e738f96	0.23785242
12	0xbe4a7392	-0.19770649
13	0x3c82869a	0.015933324
14	0x3f13ff2d	0.5781124
15	0x3d65269e	0.05594503
16	0x3f2a684f	0.6656541
17	0xbf30d948	-0.69081545
18	0xbf98f2db	-1.1949114
19	0xbf57ec73	-0.8434517
20	0x3e61a80e	0.22036764
21	0x3f1ba635	0.60800487
22	0x3f3b50b5	0.73170024
23	0x3f2281fe	0.634796
24	0xbec4b553	-0.3841959
25	0x3d9672e4	0.073461324
26	0x3f63360f	0.8875436
27	0x3f0b533e	0.5442389
28	0xbb0328ff	-0.002001345
29	0xbeb39940	-0.35077858
30	0xbfa48a5c	-1.2854724
31	0xbf19b158	-0.6003623
32	0x3f0af39e	0.5427798
33	0xbd237214	-0.039903715
34	0xbf21b65f	-0.631689
35	0xbed21c79	-0.41037348
36	0xbf4240d2	-0.7588016
37	0x3f18597b	0.59511536
38	0x3fd39ce1	1.6532251
39	0x3f4b98c0	0.79529953
40	0x3eaa2296	0.33229512
41	0x3d619183	0.05507041
42	0xbe551c32	-0.20811537
43	0x3eb5134d	0.35366288
44	0x3e92dad6	0.28682584
45	0x3e8705cf	0.2637162
46	0x3ecf7678	0.40520072
47	0x3e6993dd	0.22810312
48	0xbf805f71	-1.0029126
49	0x3dc58a6d	0.09645543
50	0x3f3f756a	0.74788535
51	0x3e9c22e7	0.30495378
52	0xbe9c14d9	-0.30484655
53	0xbeb277ec	-0.34857118
54	0xbfae6626	-1.3624923
55	0xbf3be158	-0.7339072
56	0xbe9f4996	-0.3111083
57	0xbe8cb3d9	-0.27480963
58	0x3e58bb9f	0.21165322
59	0xbebd3ac7	-0.36958906
60	0x3d9f1725	0.07768086
61	0xbd8bab7d	-0.06819818
62	0x3e267115	0.16254075
63	0xbe883e23	-0.26609907
64	0xbe4229ad	-0.1896121
65	0x3eb4abcd	0.35287324
66	0x3e83b614	0.25724852
67	0xbe6bfa6e	-0.2304475
68	0xbee05684	-0.43816006
69	0x3effefdf	0.49987695
70	0x3f0aa35d	0.5415552
71	0xbf08bd38	-0.53413725
72	0x3f6fbcf2	0.9364768
73	0xbeaf2784	-0.34209836
74	0xbf31904b	-0.693608
75	0xbf1b424f	-0.60648054
76	0xbef78743	-0.48345384
77	0x3edd3618	0.43205333
78	0x3fb03ee0	1.3769188
79	0x3f251585	0.6448596
80	0xbec9f887	-0.39447424
81	0x3e24d764	0.1609779
82	0xbe44707d	-0.19183536
83	0xbdb3679b	-0.087599955
84	0x3dae1897	0.08500784
85	0xbe7258cd	-0.23666687
86	0x3e2f0d14	0.17094833
87	0x3e76f41f	0.24116562
88	0x3e57a18d	0.2105772
89	0x3d248402	0.040164955
90	0xbe525793	-0.2054122
91	0x3e2a07b7	0.16604505
92	0x3df80b19	0.12111492
93	0x3dce3454	0.100685745
94	0xbe22448f	-0.15846466
95	0x3ea5cc57	0.3238246
96	0xbec659f3	-0.387405
97	0xbf09ffc5	-0.539059
98	0xbfc78d6e	-1.5590036
99	0xbf217f0f	-0.630845
100	0x3e9f82c1	0.31154445
101	0xbe910dfb	-0.2833098
102	0xbe9e1be5	-0.30880657
103	0x3e80f915	0.25190035
104	0x3ebaee70	0.36510038
105	0xbcaf442d	-0.021394813
106	0xbec3cdd5	-0.38242975
107	0x3eb19ce6	0.34690017
108	0x3e8877c3	0.2665387
109	0xbf28b1f3	-0.6589653
110	0xbf6369b1	-0.8883315
111	0xbf1ad0cd	-0.60474855
112	0x3f010328	0.5039544
113	0xbec67b9b	-0.38766178
114	0xbeb302e1	-0.34963134
115	0x3eb5629e	0.354268
116	0x3dfd486d	0.1236733
117	0xbeb270b5	-0.34851614
118	0x3f0d85b2	0.5528213
119	0xbe0689b8	-0.13138473
120	0x3eae773d	0.34075347
121	0xbdb229cd	-0.08699379
122	0x3c40dd77	0.011771551
123	0x3e96632c	0.29372537
124	0xbf5ff9a9	-0.87490326
125	0x3e7a55ce	0.24446794
126	0x3f92ea0a	1.1477673
127	0x3f073ddc	0.52828765
128	0xbe3d68e3	-0.18497042
129	0xbe7ac3ee	-0.24488804
130	0x3dd052f8	0.10172075
131	0x3e1d614b	0.15369146
132	0x3ebfb4ab	0.37442526
133	0x3e47cce4	0.19511753
134	0x3f9ed507	1.2408761
135	0x3f15d775	0.58531886
136	0xbebfc525	-0.37455097
137	0x3d76aa47	0.060220983
138	0xbe9564ed	-0.29178563
139	0x3d41a316	0.04727467
140	0xbda2d70b	-0.079511724
141	0xbe08d4d5	-0.13362439
142	0x3dc5de99	0.09661598
143	0x3dd9af1c	0.106291026
144	0xbe199832	-0.14999464
145	0xbf1dce7e	-0.6164321
146	0xbfb03855	-1.3767191
147	0xbf2b5326	-0.6692375
148	0x3e61aa3d	0.22037597
149	0x3e934b83	0.28768548
150	0x3f745e53	0.9545643
151	0x3f046c76	0.51728
152	0xbe3dc410	-0.18531823
153	0xbc91a8c2	-0.017780665
154	0x3edb4165	0.4282333
155	0x3d993157	0.07480114
156	0xbed08151	-0.4072366
157	0xbe19bab9	-0.15012635
158	0x3c914f26	0.017737936
159	0x3e62bfa7	0.22143422
160	0xbe095c8e	-0.13414213
161	0x3f01fa07	0.50772136
162	0x3fc499c2	1.5359423
163	0x3eff05dd	0.4980916
164	0x3e7abbda	0.24485722
165	0x3dc7fa72	0.097645655
166	0x3dea9ffe	0.11456297
167	0x3ea0d916	0.31415623
168	0x3e9fe7ad	0.31231442
169	0xbed33481	-0.41250995
170	0x3eea85a1	0.45805076
171	0xbea87903	-0.32904825
172	0x3f60731c	0.8767564
173	0xbf025fc6	-0.5092739
174	0xbfbe0114	-1.4844079
175	0xbf3c505d	-0.73560125
176	0xbebd45c4	-0.3696729
177	0xbe97774f	-0.29583213
178	0x3ec7dc7c	0.39035404
179	0xbedb8eed	-0.4288248
180	0xbde4748a	-0.111550406
181	0x3eb018dc	0.34393966
182	0xbdfb6ce1	-0.122766264
183	0x3ea59e4a	0.32347327
184	0x3ee5ee73	0.44908485
185	0x3e074794	0.13210899
186	0x3f365854	0.7122853
187	0x3ee2d280	0.44301224
188	0xbd4dcb2d	-0.05024259
189	0xbe984f49	-0.2974799
190	0xbfd8a1ae	-1.6924341
191	0xbefdf185	-0.49598327
192	0x3f5a4533	0.8526184
193	0xbe71e61d	-0.23622938
194	0xbfe5c7e3	-1.7951626
195	0xbf29130f	-0.66044706
196	0x3d132841	0.03592706
197	0x3d4f211e	0.050568692
198	0x3f3f8f73	0.7482826
199	0xbe922832	-0.28546292
200	0x3e493de1	0.19652511
201	0x3e474b51	0.19462325
202	0x3e59a39b	0.21253817
203	0x3e401830	0.18759227
204	0xbe1c460c	-0.15261096
205	0x3d5762b6	0.052584372
206	0x3f100e93	0.5627224
207	0xbe9bbc90	-0.304173
208	0xbea885ed	-0.32914677
209	0xbdb30f12	-0.08743109
210	0xbe93547f	-0.28775403
211	0x3cab9c17	0.020948453
212	0xbe718481	-0.23585702
213	0x3e9358ea	0.28778774
214	0x3e02a7c9	0.12759317
215	0xbe62c463	-0.22145228
216	0xbf251bff	-0.64495844
217	0x3f098a7f	0.53726953
218	0x3fd61178	1.6724081
219	0x3f40a593	0.75252646
220	0x3e81db12	0.2536245
221	0xbd6deb74	-0.058085874
222	0x3e848ba3	0.25887784
223	0x3e588a64	0.21146542
224	0xbeca7375	-0.39541212
225	0x3e896f85	0.26842895
226	0x3e528a3a	0.20560542
227	0x3e49fa1f	0.1972432
228	0xbeff53bd	-0.49868575
229	0xbe358555	-0.17726643
230	0x3f106582	0.5640489
231	0xbe909c5e	-0.282443
232	0xbe95189d	-0.2912034
233	0xbf1f0e6a	-0.6213137
234	0xbf23199a	-0.6371094
235	0xbe18749a	-0.1488823
236	0x3e8cf283	0.27528772
237	0xbd63adff	-0.055585857
238	0x3d7894b1	0.06068868
239	0x3e7a588b	0.24447839
240	0xbf67a703	-0.90489215
241	0xbe53bf25	-0.20678385
242	0x3f82b43a	1.0211251
243	0x3e9cd109	0.3062823
244	0x3eab24f8	0.33426642
245	0xbe914011	-0.2836919
246	0xbe9a889b	-0.30182347
247	0xbca0ed2d	-0.019644344
248	0xbe380e92	-0.17974308
249	0x3e71277c	0.23550218
250	0xbf230ac1	-0.63688284
251	0xbee9c5b7	-0.45658657
252	0x3ec6b906	0.38813037
253	0xbedbdf99	-0.4294403
254	0xbcc9266c	-0.024554454
255	0xbddc2fcf	-0.10751306

bias f4 [256]
0	0x3f18ba63	0.59659404
1	0x3f254b08	0.64567614
2	0x3ee70835	0.4512345
3	0x3f02016c	0.5078342
4	0xbeed61bd	-0.4636363
5	0xbe89613b	-0.26831993
6	0x3d885bb7	0.06658118
7	0xbec56741	-0.3855534
8	0xbebf91e2	-0.37415987
9	0xbefb6e12	-0.49107414
10	0x3f177372	0.5916053
11	0x3f517bda	0.8182961
12	0x3d6cc95f	0.05780923
13	0xbecc543e	-0.39908022
14	0x3f34155d	0.703451
15	0x3f43a130	0.7641783
16	0x3ea29ceb	0.31760344
17	0x3ddb39b5	0.10704366
18	0xbe76b36a	-0.24091879
19	0xbef4a593	-0.47782573
20	0x3f40c656	0.75302637
21	0x3f442847	0.7662396
22	0x3f2308db	0.6368539
23	0x3f0d1fd7	0.5512671
24	0xbcf8bb82	-0.030362848
25	0x3f477173	0.77907485
26	0x3f0ca95f	0.5494594
27	0x3ecf34e4	0.4047004
28	0x3f65ffe2	0.8984357
29	0x3f3680cf	0.71290296
30	0x3f411e63	0.7543699
31	0xbee1dae4	-0.44112313
32	0x3f50f87b	0.8162915
33	0xbed829df	-0.42219445
34	0xbeea3ba4	-0.45748627
35	0x3f046f58	0.517324
36	0x3ca836ad	0.020533884
37	0xbea04e35	-0.31309667
38	0x3ef0a59d	0.47001353
39	0x3f56f79b	0.83971566
40	0x3e6f0dbb	0.23345082
41	0x3f137f07	0.57615703
42	0x3f09eaa8	0.5387368
43	0xbed76ef6	-0.42076844
44	0x3f46c89b	0.7764985
45	0x3f180c81	0.5939408
46	0x3eb3f93e	0.35151094
47	0xbebd33ac	-0.36953485
48	0xbeb758e3	-0.35810003
49	0x3f54cd2d	0.83125573
50	0x3f167f20	0.5878773
51	0x3f4be52b	0.7964656
52	0x3f3c5e83	0.73581713
53	0x3eb0cf80	0.3453331
54	0xbf022c09	-0.5084844
55	0x3f100e2e	0.56271636
56	0x3f3ec25b	0.7451531
57	0x3efc9d8d	0.49338952
58	0xbda6e262	-0.08148648
59	0x3f149592	0.58040726
60	0xbef20f99	-0.47277525
61	0x3ed84ae7	0.42244646
62	0xbf13fa31	-0.57803637
63	0x3f0a136f	0.53935903
64	0x3f2a3785	0.66490966
65	0x3e81bee3	0.25340948
66	0x3edaee74	0.4276005
67	0x3e7041da	0.2346262
68	0xbe5c265b	-0.21499006
69	0xbdd0eca4	-0.102013856
70	0x3efa63d6	0.48904294
71	0x3f63e5b2	0.8902236
72	0x3f03b844	0.5145304
73	0x3ea0ad35	0.31382146
74	0x3efafef9	0.49022654
75	0x3f64c5b7	0.8936419
76	0x3f26a748	0.65099
77	0x3e8298a7	0.2550709
78	0xbee63b96	-0.44967335
79	0xbef40487	-0.47659704
80	0xbecd9a7a	-0.4015692
81	0xbe08f049	-0.13372912
82	0x3ea8008b	0.32812914
83	0x3f5488dd	0.83021337
84	0x3f031079	0.5119701
85	0x3f21d187	0.6321034
86	0x3f54907e	0.8303298
87	0x3f20a115	0.6274579
88	0x3f05d4d3	0.5227787
89	0x3eede0d6	0.464606
90	0x3eedfcd7	0.46481964
91	0x3efb2439	0.49051073
92	0xbedb68bc	-0.42853343
93	0x3f449974	0.7679665
94	0x3c81c581	0.015841248
95	0x3f104db6	0.5636858
96	0x3ef7fc8b	0.48434862
97	0x3f21b110	0.631608
98	0x3f434c1f	0.76288027
99	0x3f3ddc48	0.7416425
100	0x3f3cac84	0.7370074
101	0x3f2a1778	0.6644206
102	0x3ed48463	0.41507253
103	0x3f44ebbf	0.7692222
104	0x3f38f330	0.72246075
105	0xbf188489	-0.5957723
106	0x3f3055b8	0.68880796
107	0x3f32a001	0.69775397
108	0x3ec692cb	0.3878387
109	0x3f18a385	0.5962451
110	0x3f0746cc	0.528424
111	0x3f043756	0.51646936
112	0xbeb6cc79	-0.35702875
113	0x3eb0defd	0.34545127
114	0x3f5ec43f	0.870182
115	0xbdc1a067	-0.094544224
116	0x3dff426f	0.12463843
117	0xbf0362e0	-0.51322746
118	0x3f1feabf	0.6246757
119	0x3eb9dfe9	0.36303642
120	0xbede4f2b	-0.43419775
121	0x3f2173f1	0.6306754
122	0xbeeb31be	-0.45936388
123	0xbd85e1af	-0.06537186
124	0x3ec53658	0.38518023
125	0xbe7b5a5f	-0.24546193
126	0xbe0bf8dd	-0.13669153
127	0x3ece718d	0.40321007
128	0xbeb51024	-0.35363877
129	0x3edbfad1	0.42964795
130	0x3ed8d03e	0.42346376
131	0xbf184555	-0.5948079
132	0x3f150018	0.5820327
133	0xbec18bec	-0.37802064
134	0x3f250d96	0.64473855
135	0x3f18ed78	0.5973735
136	0x3f032831	0.512332
137	0xbdeb11d5	-0.114780106
138	0xbf05a65d	-0.52206975
139	0x3f204a9c	0.62613845
140	0xbed279c5	-0.41108528
141	0x3f597e80	0.8495865
142	0x3f32d158	0.69850683
143	0x3f07f97d	0.53115064
144	0x3f5175f4	0.8182061
145	0x3f330fc2	0.6994592
146	0x3f2c0c15	0.67205936
147	0x3f08d0dc	0.53443694
148	0x3f023c7d	0.5087355
149	0x3f1b36a1	0.6063023
150	0x3f47f0d9	0.7810188
151	0xbe2c2661	-0.16811515
152	0xbee7a33a	-0.4524172
153	0xbeca8f88	-0.3956263
154	0xbd4e3e86	-0.050352596
155	0x3efad561	0.4899092
156	0x3e8f79f3	0.28022727
157	0xbd897322	-0.06711413
158	0x3f496d56	0.7868246
159	0x3f3103be	0.69146335
160	0xbcd7b21a	-0.026330043
161	0xbe23b9da	-0.15988865
162	0x3f4195b7	0.7561907
163	0xbecc8ba6	-0.39950293
164	0x3f62f0a6	0.8864845
165	0x3f53295d	0.8248499
166	0x3f221c40	0.63324356
167	0x3e49455b	0.19655363
168	0xbed0bda7	-0.40769693
169	0x3ee716cc	0.4513458
170	0x3f4f7f38	0.81053495
171	0xbdc459ea	-0.09587462
172	0x3f16edfe	0.589569
173	0x3f306385	0.68901855
174	0xbf0cce98	-0.5500274
175	0x3f19d6c0	0.6009331
176	0xbd7ebac5	-0.062189836
177	0x3f33214e	0.69972694
178	0x3f01966a	0.5062014
179	0x3f0b9cf4	0.54536366
180	0xbcd40d78	-0.025885329
181	0xbd43c8b7	-0.04779884
182	0x3f37d0c1	0.7180291
183	0xbe433f3e	-0.19067094
184	0xbeaf939b	-0.34292302
185	0x3f5973d5	0.8494237
186	0x3ebe48b7	0.37164852
187	0xbe40d423	-0.18830924
188	0x3f2684aa	0.6504618
189	0x3f58fcc7	0.8476071
190	0x3f066763	0.52501506
191	0x3f05db86	0.5228809
192	0x3edd110b	0.43177065
193	0x3f18c097	0.5966887
194	0xbe5290a0	-0.20562983
195	0xbea0bfd0	-0.3139634
196	0x3f0d22ef	0.5513143
197	0xbecc7383	-0.39931878
198	0x3f5a76e6	0.85337675
199	0x3f2716e5	0.6526931
200	0x3f5044b5	0.8135484
201	0x3ee216be	0.44157976
202	0x3f473128	0.7780938
203	0x3f57d32d	0.84306604
204	0xbe60e113	-0.21960859
205	0xbe2471fa	-0.16059104
206	0xbea69b99	-0.32540587
207	0x3f52e168	0.8237519
208	0xbe073997	-0.13205563
209	0xbed76467	-0.42068788
210	0x3f17548d	0.5911339
211	0xbec6a071	-0.38794282
212	0x3f2bc9df	0.67104906
213	0xbf089324	-0.5334952
214	0x3eb38b1b	0.35067067
215	0x3ed9c27c	0.42531192
216	0xbd4c00ee	-0.049805574
217	0x3f534496	0.8252653
218	0x3e3710bc	0.17877477
219	0x3f3cbd83	0.7372667
220	0x3f247f15	0.6425641
221	0x3f5fc412	0.87408555
222	0x3f1077ac	0.56432605
223	0xbe253b26	-0.16135845
224	0x3f343b9d	0.7040346
225	0x3f54feb4	0.83201146
226	0x3f5d359a	0.86409914
227	0x3e2e5660	0.17025137
228	0xbea762a6	-0.3269245
229	0xbc883f7a	-0.01663183
230	0x3f26ca7f	0.65152735
231	0xbd700130	-0.058594882
232	0xbe403081	-0.18768503
233	0xbec07131	-0.37586358
234	0x3f29c88c	0.66321635
235	0xbf0503f7	-0.51959175
236	0xbdea28c2	-0.11433555
237	0x3f589567	0.8460297
238	0xbe5be23a	-0.21473017
239	0xbe57184c	-0.21005362
240	0xbeddc338	-0.43313003
241	0x3f54d3ba	0.8313557
242	0x3ea037b8	0.3129251
243	0xbeab4069	-0.3344758
244	0x3efee94a	0.4978736
245	0x3e56b767	0.209684
246	0x3ef438c9	0.47699574
247	0x3f56d0da	0.8391243
248	0x3ef545a7	0.47904703
249	0x3f12b1fb	0.57302827
250	0x3ed211bb	0.41029152
251	0xbbf16d59	-0.0073677716
252	0xbec24716	-0.3794486
253	0x3ed83581	0.4222832
254	0x3e68d6ea	0.22738233
255	0x3f547c23	0.8300192

weight f4 [2, 256]
0	0x3e827610	0.254807
1	0x3e864c52	0.26230103
2	0x3db2c92a	0.08729775
3	0x3e53cab8	0.206828
4	0xbf3fd374	-0.74932027
5	0xbee0133d	-0.43764678
6	0xbd99d3cf	-0.075111024
7	0xbf119165	-0.5686248
8	0xbf0d388e	-0.5516442
9	0xbf652cf0	-0.89521694
10	0x3e3b147f	0.18269537
11	0x3e95e971	0.29279664
12	0xbec6354a	-0.3871253
13	0xbf2f2223	-0.68411463
14	0x3e500718	0.20315206
15	0x3e8d8782	0.27642447
16	0x3e0e8c13	0.13920622
17	0x3d7c4171	0.061585847
18	0xbf13a51f	-0.5767383
19	0xbf5e9847	-0.86951107
20	0x3e6a223f	0.22864626
21	0x3dd9e16a	0.106386974
22	0x3e9a1cf2	0.3010021
23	0x3e67ce11	0.22637202
24	0xbf277a87	-0.65421337
25	0x3e502941	0.20328237
26	0x3e63697a	0.22208205
27	0xbef2bd6d	-0.47410145
28	0x3e8b766e	0.27238792
29	0x3e64e6de	0.22353694
30	0x3e85a828	0.26104856
31	0xbec20d45	-0.3790075
32	0x3df773dc	0.12082645
33	0xbee060ba	-0.43823797
34	0xbd503047	-0.05082729
35	0x3dcec17f	0.100955
36	0xbf1996a2	-0.5999547
37	0xbf28b4c2	-0.65900815
38	0x3e58722e	0.21137306
39	0x3e1d41a4	0.15357071
40	0xbf52c576	-0.8233255
41	0x3e1a0fdb	0.15045111
42	0x3e8f2272	0.27955967
43	0xbf593494	-0.8484585
44	0x3e63bb12	0.2223933
45	0x3ea2cbd4	0.31796134
46	0xbe94194e	-0.28925556
47	0xbf3be7a4	-0.7340033
48	0xbf189c5b	-0.5961358
49	0x3e942d5a	0.2894085
50	0x3ea125b5	0.3147408
51	0x3e6a77b5	0.22897227
52	0x3e8a9490	0.2706647
53	0x3da96149	0.08270509
54	0xbf6c1cc3	-0.92231387
55	0x3e684095	0.22680886
56	0x3e9eab0d	0.30989876
57	0x3e52daae	0.20591232
58	0xbe8d342f	-0.27578875
59	0x3e354996	0.17703852
60	0xbe50f15a	-0.20404568
61	0x3e83089b	0.25592503
62	0xbdf4cd8a	-0.11953266
63	0x3eaf6b70	0.34261656
64	0x3e9021a6	0.28150672
65	0xbdc5d944	-0.09660581
66	0x3e13dde6	0.14440116
67	0xbe07ab48	-0.13248932
68	0xbeb95489	-0.36197308
69	0xbf268086	-0.6503986
70	0x3e400a2d	0.18753882
71	0x3e809864	0.25116265
72	0x3e9d5d2b	0.30735144
73	0x3ca61bdd	0.020276958
74	0xbe555890	-0.20834565
75	0x3e9907a3	0.2988864
76	0x3ea0d782	0.3141442
77	0xbe13b060	-0.1442275
78	0xbea1ef06	-0.31627673
79	0xbf74cd7c	-0.95626044
80	0xbf468d65	-0.775595
81	0xbec135fa	-0.37736493
82	0x3d8b2306	0.067937896
83	0x3ea1e1d4	0.31617606
84	0x3e89bc5f	0.26901528
85	0x3ea5c9d6	0.3238055
86	0x3e8a295c	0.2698468
87	0x3e311b2c	0.17295521
88	0x3e8d0805	0.2754518
89	0x3e9e3310	0.30898333
90	0x3e4b51c3	0.19855408
91	0x3e957d84	0.29197323
92	0x3cbb0e70	0.022834033
93	0x3e73c97f	0.23807333
94	0xbf322f6c	-0.6960361
95	0x3ea19f1c	0.31566703
96	0x3eaae651	0.33378842
97	0x3ea23092	0.3167768
98	0x3e8a2af7	0.26985905
99	0x3e92bf70	0.2866168
100	0x3e70ea60	0.23526907
101	0x3e926ca0	0.285985
102	0x3cb9aa6a	0.022664268
103	0x3e56895d	0.20950837
104	0x3e2f1803	0.17099003
105	0xbe5e4435	-0.21705706
106	0x3e1d7f91	0.15380694
107	0x3e54ba5e	0.20774218
108	0x3dd635e3	0.10459497
109	0x3e04ecb5	0.12980922
110	0x3e61e88c	0.22061366
111	0x3e916666	0.28398436
112	0xbedde354	-0.433375
113	0x3da2b44e	0.07944547
114	0x3e9cd664	0.30632317
115	0xbefca21b	-0.49342427
116	0xbeabb595	-0.33536974
117	0xbf0cb554	-0.54964185
118	0x3e9a64f2	0.3015514
119	0xbf4b4179	-0.7939678
120	0xbe7257db	-0.23666327
121	0x3e9b539a	0.3033722
122	0xbf062887	-0.5240559
123	0xbe7fe9df	-0.24991558
124	0x3e27e9f8	0.16397846
125	0xbf3a09f4	-0.7267144
126	0x3cf9d99c	0.030499272
127	0xbf29e6db	-0.6636788
128	0xbf144d93	-0.5793087
129	0xbe138159	-0.14404811
130	0x3d06de0c	0.032926604
131	0xbe9fd4c3	-0.31217012
132	0x3df9060f	0.12159359
133	0xbe86c9df	-0.2632589
134	0x3e971585	0.29508606
135	0x3e715a7e	0.23569676
136	0x3e8029c5	0.25031868
137	0xbe2894c7	-0.16463004
138	0xbe972762	-0.29522234
139	0x3e2eb281	0.17060281
140	0xbf5e6f6e	-0.8688878
141	0x3e2a04ec	0.1660344
142	0x3e82b05e	0.25525182
143	0x3e8af5ee	0.27140754
144	0x3e87e21e	0.265397
145	0x3e7e9127	0.24860059
146	0x3e2af1e4	0.16693836
147	0x3e91205e	0.28345007
148	0x3e990e8a	0.29893905
149	0x3e2860cd	0.16443177
150	0x3e7ca842	0.2467356
151	0xbeb30180	-0.34962082
152	0xbf1df7a6	-0.61706007
153	0xbe2372d3	-0.1596177
154	0xbefa4e3e	-0.4888782
155	0x3e2990c2	0.16559127
156	0x3ece9c6e	0.4035372
157	0xbed7933f	-0.42104527
158	0x3ea6d739	0.32586077
159	0x3e799b6b	0.24375694
160	0xbe8c9335	-0.2745606
161	0xbe651827	-0.22372495
162	0x3e8d83b3	0.2763954
163	0xbf27f17b	-0.65602845
164	0x3e765a76	0.24057946
165	0x3e5a6217	0.21326481
166	0x3e1e45ed	0.15456362
167	0x3ebf2de6	0.37339705
168	0xbf29dd28	-0.6635308
169	0x3e3e4cf8	0.18584049
170	0x3e83faae	0.2577719
171	0xbecc8f7d	-0.39953223
172	0x3e3e862d	0.18605871
173	0x3e66e929	0.22549881
174	0xbf31da7f	-0.69474024
175	0x3dd96dd5	0.10616652
176	0x3eb918a8	0.36151624
177	0x3e95955e	0.2921552
178	0x3e2f6782	0.17129329
179	0x3e95e328	0.2927487
180	0xbe0c5beb	-0.13706939
181	0xbf2b8e23	-0.6701376
182	0x3e675fff	0.22595213
183	0xbeeff957	-0.4686992
184	0xbf850538	-1.0392218
185	0x3e9738ea	0.2953561
186	0x3e6a54ee	0.2288396
187	0xbe66d3d6	-0.22541746
188	0x3e4da36b	0.2008187
189	0x3e0d93e7	0.13825952
190	0x3dfc7bed	0.123283245
191	0x3e41c066	0.1892105
192	0x3e415595	0.18880303
193	0x3e2396d3	0.15975504
194	0xbf38292b	-0.7193782
195	0xbd333f18	-0.043761343
196	0x3d0f7032	0.035019107
197	0xbf385de0	-0.7201824
198	0x3e8dc721	0.27690986
199	0x3e0bd4af	0.13655351
200	0x3e825d24	0.25461686
201	0x3e5c9848	0.21542466
202	0x3e94265b	0.28935513
203	0x3eaccf83	0.3375207
204	0xbd586064	-0.0528263
205	0xbe9372c8	-0.2879851
206	0x3d182e0a	0.03715328
207	0x3e4e183d	0.20126434
208	0xbf2c55e4	-0.6731856
209	0xbf0c822b	-0.5488612
210	0x3e4f3265	0.20234068
211	0xbf224b10	-0.63395786
212	0x3e99b8a9	0.30023697
213	0xbf123c39	-0.5712314
214	0xbf2d18af	-0.6761579
215	0xbd319d46	-0.04336288
216	0x3e76e18b	0.24109475
217	0x3e742130	0.23840785
218	0x3e14ebc8	0.14543068
219	0x3e899d70	0.26877928
220	0x3e24922e	0.16071388
221	0x3e884be9	0.26620415
222	0x3e8a0e4e	0.2696404
223	0xbef543ab	-0.4790319
224	0x3e5dff35	0.21679385
225	0x3e76165d	0.24031968
226	0x3e7fde2c	0.24987096
227	0xbf1bb437	-0.6082186
228	0xbf42a312	-0.76030076
229	0xbf00876c	-0.5020664
230	0x3e6b941f	0.23005722
231	0xbf3e765a	-0.7439934
232	0xbe654248	-0.22388566
233	0xbe79d15b	-0.24396269
234	0x3e62078e	0.22073194
235	0xbf58ccb6	-0.84687364
236	0xbf2e39ea	-0.6805712
237	0x3e681b6f	0.22666715
238	0xbebb0c83	-0.36532983
239	0xbef398d2	-0.4757753
240	0xbf2f8b02	-0.68571484
241	0x3e1a9e88	0.15099537
242	0xbe8678a5	-0.2626392
243	0x3e03c033	0.12866287
244	0x3e8ad875	0.2711827
245	0xbf03617a	-0.5132061
246	0x3e67b0f6	0.22626099
247	0x3e5e7482	0.21724132
248	0x3e554d87	0.20830356
249	0x3e9295e7	0.2862999
250	0x3dc1c393	0.09461131
251	0xbf72a607	-0.9478459
252	0xbce32e60	-0.027732074
253	0xbe5ec842	-0.2175608
254	0x3d7e7a26	0.06212821
255	0x3e829e6f	0.255115

bias f4 [2]
0	0x3e9acadf	0.30232903
1	0x3e57e6ca	0.21084133
