Code/models/CartPole-v0_test001.pt (torch, 10003 bytes, 4 tensors)

weight f4 [256, 4]
0	0x3f597398	0.8494201
1	0xbdd4dedc	-0.103940696
2	0xbf167933	-0.58778685
3	0xbf26af28	-0.6511102
4	0xbf531fd0	-0.8247042
5	0xbe9db6f1	-0.30803636
6	0x3f7a7a89	0.97843224
7	0x3ec28474	0.3799168
8	0xbf4a7417	-0.7908339
9	0x3cc48cdf	0.023992954
10	0x3f6c5b0c	0.92326427
11	0x3da6c94b	0.08143862
12	0x3deddf7c	0.11614892
13	0xbe9664ad	-0.29373685
14	0x3f01ec95	0.5075162
15	0xbec1677a	-0.3777426
16	0x3ebd7957	0.37006637
17	0x3ed91f1c	0.42406547
18	0xbe93ace6	-0.2884285
19	0xbc6e20f5	-0.014534225
20	0x3eb15067	0.34631655
21	0x3ec26b58	0.37972522
22	0x3dff2398	0.12457961
23	0xbe4dcabb	-0.20096867
24	0xbeb14335	-0.34621587
25	0x3e25169d	0.16121908
26	0x3f4e79aa	0.80654395
27	0x3f0f6673	0.560157
28	0x3eac96eb	0.3370889
29	0xbd7845de	-0.060613506
30	0xbf0a7b5b	-0.54094476
31	0xbd2837d9	-0.041068885
32	0xbe4af7e9	-0.19821133
33	0x3e4c2151	0.19934584
34	0x3f1dc5c0	0.6162987
35	0x3f23fb2e	0.64055145
36	0xbf58e6af	-0.84726995
37	0x3d1f143b	0.038837653
38	0x3f9cd236	1.2251651
39	0x3e9f142e	0.31070083
40	0xbe9ea3ce	-0.30984348
41	0x3e5e306b	0.21698157
42	0x3e6cba06	0.23117837
43	0xbd1d1793	-0.03835256
44	0x3e7a7f9f	0.24462746
45	0x3eb70dfb	0.35752854
46	0x3fa8514b	1.3149809
47	0x3ef32ae2	0.47493654
48	0xbeb684c2	-0.3564816
49	0x3ec9e93a	0.3943575
50	0x3e5f4f6c	0.21807641
51	0x3ea34988	0.31892037
52	0x3dacf1ee	0.08444582
53	0xbed47e86	-0.4150278
54	0xbe68226d	-0.22669382
55	0xbd021d06	-0.03176596
56	0xbdcf1aa5	-0.10112504
57	0x3ed1dd56	0.40989178
58	0xbe453889	-0.19259848
59	0x3ebbd65e	0.36686987
60	0xbe9331f6	-0.28749055
61	0xbee9f2af	-0.45692965
62	0xbfa8a1d0	-1.3174381
63	0xbf28fe56	-0.66013086
64	0xbcc58163	-0.024109548
65	0x3e08eefe	0.13372418
66	0x3f9d83a4	1.2305799
67	0x3eed7e37	0.46385357
68	0x3c251462	0.01007566
69	0x3d67de46	0.05660846
70	0x3edc05d2	0.4297319
71	0x3dcf8970	0.10133636
72	0xbe5e821c	-0.2172932
73	0x3db9445d	0.090462424
74	0xbe00f061	-0.12591697
75	0xbd16a449	-0.03677777
76	0x3f2e284b	0.6803023
77	0x3ef9b53d	0.48771086
78	0xbe81abbc	-0.25326335
79	0xbe238295	-0.15967782
80	0xbdcecb09	-0.1009732
81	0xbe713765	-0.23556288
82	0xbf8d628e	-1.1045702
83	0xbf2e8742	-0.6817514
84	0xbe999808	-0.29998803
85	0x3d44b8ab	0.048027676
86	0xbf06a153	-0.5258991
87	0x3e91350b	0.2836078
88	0x3e9f4972	0.31110722
89	0xbea79bc1	-0.32736018
90	0xbe39b84b	-0.18136708
91	0x3e28c932	0.16483
92	0xbdd3e486	-0.10346322
93	0x3d174f22	0.0369407
94	0x3de6f81a	0.1127779
95	0xbe3b79db	-0.18308203
96	0x3d324aa3	0.04352821
97	0x3e381316	0.1797603
98	0x3f9a894a	1.2073147
99	0x3f3b1788	0.7308278
100	0x3e00c6fd	0.12575908
101	0x3bdbb39f	0.006704762
102	0x3ea37034	0.31921542
103	0xbe6dbb82	-0.2321606
104	0xbd8dff69	-0.06933481
105	0x3f20a52f	0.6275205
106	0x3d296b23	0.04136194
107	0xbe658350	-0.22413373
108	0xbe475c29	-0.1946875
109	0x3f2b777a	0.6697918
110	0x3ebe0234	0.37111056
111	0xbe6ac8dc	-0.22928184
112	0x3e8009e8	0.25007558
113	0x3f04dc73	0.5189888
114	0x3e1b1f2e	0.15148613
115	0xbe551590	-0.20809007
116	0xbb93ed66	-0.004514384
117	0xbe7a2747	-0.24429046
118	0xbe94bc4c	-0.2904991
119	0xbe49785c	-0.1967482
120	0xbf063b05	-0.52433807
121	0x3e4f513a	0.20245829
122	0xbe679ed7	-0.22619186
123	0xbd9c6759	-0.076368995
124	0x3dd896b2	0.10575618
125	0x3e97b630	0.29631186
126	0x3ecae09b	0.39624485
127	0xbe5113e5	-0.20417745
128	0x3f0434a7	0.5164284
129	0xbe22bbc8	-0.15891945
130	0x3e4998f0	0.19687247
131	0x3e7c6e89	0.24651541
132	0xbea26dbe	-0.31724352
133	0xbd1c1817	-0.03810891
134	0xbf953b34	-1.1658692
135	0xbf29e3e0	-0.66363335
136	0xbf8faff8	-1.1225576
137	0xbf1ebe4c	-0.6200912
138	0xbeea49c1	-0.45759395
139	0xbe8f4f68	-0.2799027
140	0xbee9542f	-0.4557204
141	0x3e293872	0.16525438
142	0xbe087684	-0.1332646
143	0x3e537bbe	0.20652673
144	0xbf03ee7f	-0.5153579
145	0xbee1d522	-0.4410792
146	0xbfc20698	-1.5158262
147	0xbeb2696c	-0.34846056
148	0xbeee1150	-0.46497583
149	0x3ea06d2d	0.31333295
150	0xbeaf6118	-0.34253764
151	0xbab25556	-0.0013605754
152	0x3ea52924	0.3225795
153	0x3c85ed0d	0.016348386
154	0x3eed5d46	0.46360224
155	0xbeb1d7b3	-0.34734878
156	0x3d73feda	0.059569217
157	0xbebd1a44	-0.36934102
158	0xbed4d118	-0.41565776
159	0x3da5cf9c	0.08096239
160	0x3e5381b4	0.20654947
161	0xbdc8cdc5	-0.098048724
162	0x3e70cb4c	0.23515052
163	0x3e4d37f6	0.20040879
164	0x3e6fad46	0.23405942
165	0x3eadc264	0.3393737
166	0x3f0cf932	0.5506774
167	0x3e30833e	0.17237565
168	0xbec91e7f	-0.3928108
169	0x3e408ad4	0.18802959
170	0xbed482fd	-0.41506186
171	0x3ed8f154	0.4237162
172	0x3ec1d36c	0.37856615
173	0xbe70f756	-0.23531851
174	0x3d42acce	0.04752808
175	0xbe2f9640	-0.1714716
176	0x3e9b9114	0.30384123
177	0xbde14193	-0.109988354
178	0x3e810de8	0.25205922
179	0x3e787c6c	0.24266213
180	0x3f13f99e	0.5780276
181	0x3d5c3a42	0.053766496
182	0xbf5ea516	-0.8697065
183	0xbee970ba	-0.45593816
184	0x3ead7012	0.33874565
185	0xbf20b6b0	-0.6277876
186	0xbf0a0ed8	-0.539289
187	0x3e8398ac	0.25702417
188	0x3e28ea3b	0.16495602
189	0x3ee2796a	0.44233257
190	0xbe982bd7	-0.29720947
191	0x3e2b9019	0.16754188
192	0x3ed4e336	0.41579598
193	0x3cfaf4ed	0.030634368
194	0xbf0e1d0f	-0.5551309
195	0xbef143cd	-0.4712204
196	0x3f22edeb	0.63644284
197	0x3e9d12bd	0.3067836
198	0xbf8023b4	-1.0010896
199	0xbd57e125	-0.05270495
200	0xbe97cc61	-0.29648116
201	0x3e3138eb	0.17306869
202	0xbe1742a4	-0.14771515
203	0xbd3024e4	-0.04300393
204	0x3ee7dd04	0.4528581
205	0xbf058788	-0.5215993
206	0xbfac6957	-1.3469647
207	0xbf2c1488	-0.6721883
208	0x3ebbb0a7	0.36658213
209	0xbee6fc02	-0.45114142
210	0xbf02fe11	-0.51168925
211	0xbeae3910	-0.3402791
212	0x3f683a50	0.9071398
213	0x3e9ba4a5	0.3039905
214	0xbf1b5e58	-0.6069083
215	0xbc9d025f	-0.01916617
216	0x3c23b403	0.009991649
217	0xbe54ba7b	-0.20774262
218	0xbe752f8e	-0.23943922
219	0xbe9cd8c2	-0.30634123
220	0xbe4ad060	-0.19806051
221	0xbb55cd28	-0.0032623503
222	0x3d626584	0.055272594
223	0x3e2e476d	0.17019434
224	0xbe64c1f6	-0.22339615
225	0x3ee393fa	0.44448835
226	0x3e223064	0.15838772
227	0x3eb05a29	0.34443787
228	0x3d925e9c	0.071469516
229	0x3e29f478	0.16597164
230	0x3e31f3a0	0.17378092
231	0x3e8d0cdd	0.27548876
232	0x3f3dcf03	0.74144
233	0x3ebc116c	0.36732042
234	0x3d8bbf3b	0.06823584
235	0x3e82e918	0.2556846
236	0x3da26feb	0.07931503
237	0xbe4d8305	-0.20069511
238	0x3f74e2a2	0.95658314
239	0x3de14ec0	0.110013485
240	0x3f042112	0.5161296
241	0x3dc750f3	0.09732237
242	0x3f964bd5	1.1741892
243	0x3eac7033	0.3367935
244	0x3e847f30	0.25878286
245	0x3e2735d2	0.16329125
246	0xbf5c5a5d	-0.86075383
247	0xbf0218d3	-0.5081913
248	0xbed7703a	-0.4207781
249	0x3edd17e8	0.43182302
250	0xbdfb1b48	-0.12261063
251	0x3eb1092b	0.34577307
252	0x3e1ca8f7	0.1529883
253	0x3ee72714	0.45147002
254	0x3c4eef34	0.012630273
255	0xbe1310ec	-0.14361924

bias f4 [256]
0	0xbe92f62c	-0.2870344
1	0xbc618f9e	-0.013767151
2	0xbda3dddb	-0.080013
3	0x3f132e92	0.57492936
4	0x3f290cb7	0.66035026
5	0xbeab6ee8	-0.33483052
6	0xbede0fcc	-0.43371427
7	0x3f54dc25	0.83148414
8	0xbf223e6f	-0.63376516
9	0xbe2bbb1f	-0.167706
10	0x3eff3a31	0.49849084
11	0xbe4df7b7	-0.20114027
12	0xbefc3f94	-0.49267256
13	0x3f388937	0.72084373
14	0x3f15f743	0.58580416
15	0xbe976187	-0.29566595
16	0xbf1cabc2	-0.6119958
17	0x3f13c024	0.5771506
18	0x3f4507ae	0.76964843
19	0xbf06eae4	-0.52702165
20	0xbed27015	-0.41101137
21	0x3f43d282	0.76493084
22	0x3f4490c7	0.7678341
23	0x3f138864	0.5762999
24	0xbf22606c	-0.6342838
25	0x3f46fc66	0.7772888
26	0x3f237efb	0.6386563
27	0x3ebb0a8f	0.36531493
28	0x3f13bb46	0.5770763
29	0x3f2556fc	0.6458585
30	0x3f3609f1	0.7110892
31	0x3f439c53	0.76410407
32	0x3f494cdd	0.7863291
33	0xbeede344	-0.46462452
34	0xbdc1dea9	-0.09466297
35	0x3f041dec	0.5160816
36	0x3b2bc66e	0.0026210803
37	0x3f0fd6f9	0.561874
38	0x3f68c2fb	0.90922517
39	0x3f104725	0.5635856
40	0x3f31c329	0.69438416
41	0xbf0dc4f5	-0.5537866
42	0xbebffe36	-0.37498635
43	0x3f2e86a7	0.68174213
44	0x3f60febf	0.8788871
45	0xbcea00c2	-0.028564814
46	0x3d283fe6	0.041076563
47	0x3f2da498	0.67829275
48	0xbe082c50	-0.13298154
49	0xbe444a3c	-0.19168943
50	0x3f10c7a1	0.5655461
51	0xbeec49b1	-0.46149972
52	0x3f5120f7	0.81690925
53	0xbe259ce0	-0.16173124
54	0x3f31491f	0.692522
55	0x3f32f293	0.6990139
56	0x3f2bc816	0.6710218
57	0x3f106cec	0.564162
58	0xbceca09d	-0.02888518
59	0xbe8b6619	-0.27226332
60	0xbe8d0e99	-0.275502
61	0xbd812a8e	-0.06306945
62	0x3f0d28dd	0.5514048
63	0xbeec805f	-0.4619169
64	0xbece2747	-0.4026434
65	0xbe87b5f6	-0.26506013
66	0xbeb6c723	-0.35698804
67	0xbe5cc9c0	-0.21561337
68	0xbebdd257	-0.3707454
69	0xbe805772	-0.25066715
70	0xbda9ab4e	-0.08284627
71	0xbecc8771	-0.39947084
72	0x3f5ea180	0.8696518
73	0x3f2b0411	0.6680308
74	0xbf0afbcf	-0.5429048
75	0x3f0be29d	0.5464266
76	0xbf120278	-0.57035017
77	0x3f04b5e7	0.5184006
78	0xbeac6b8b	-0.336758
79	0xbea13324	-0.3148433
80	0x3f4aa6b9	0.7916065
81	0xbef001dd	-0.46876422
82	0xbe782079	-0.24231137
83	0x3f099735	0.5374635
84	0xbcce1bdf	-0.025159774
85	0x3f44c81b	0.76867837
86	0x3e3eb2ac	0.18622845
87	0x3f2412a6	0.64090955
88	0x3f63b83c	0.88952994
89	0xbddc9867	-0.10771256
90	0x3f0b702a	0.54468024
91	0x3ef9c2ad	0.48781338
92	0xbe9b6f7c	-0.30358493
93	0x3f5ba3c1	0.85796744
94	0x3f0d1712	0.5511333
95	0x3df41c71	0.11919487
96	0x3e23a80c	0.15982074
97	0xbe9dbd3b	-0.30808434
98	0xbe909e0a	-0.28245574
99	0x3f5d9daa	0.865687
100	0x3f0385e9	0.51376206
101	0xbdeb9b62	-0.11504246
102	0xbec3e5ec	-0.38261354
103	0x3f021d42	0.50825894
104	0x3f21955b	0.63118523
105	0x3f0b2c07	0.54364055
106	0xbbe18936	-0.006882812
107	0xbf00d091	-0.5031825
108	0xbd835874	-0.064133555
109	0x3efc46e0	0.49272823
110	0xbee683ae	-0.4502234
111	0xbef8bb6a	-0.48580486
112	0x3f1f1841	0.62146384
113	0xbf0191cf	-0.5061311
114	0x3f5a9c72	0.85394967
115	0xbed8b4fb	-0.42325577
116	0x3e832687	0.25615332
117	0x3f297047	0.66186947
118	0xbe80e743	-0.2517644
119	0x3d901a2d	0.07036243
120	0x3f492874	0.7857735
121	0x3f60d8de	0.87830913
122	0x3f1843d9	0.5947853
123	0x3f07ba05	0.5301822
124	0x3f599097	0.8498625
125	0xbedca501	-0.43094638
126	0xbf0c389a	-0.5477387
127	0x3ecb3ad5	0.39693323
128	0x3e378359	0.17921199
129	0xbe97571a	-0.2955864
130	0xbd8760a2	-0.06610228
131	0xbe4ce630	-0.20009685
132	0xbd5d7430	-0.054065883
133	0x3f09cd57	0.5382895
134	0x3d89728f	0.067113034
135	0xbd29a1be	-0.041414015
136	0xbee1e602	-0.44120795
137	0x3e4b6206	0.19861612
138	0xbee7c732	-0.4526916
139	0x3f56ce10	0.83908176
140	0x3f1ffab2	0.62491906
141	0x3f697c07	0.91204876
142	0x3f4aad90	0.79171085
143	0xbdb6e6d9	-0.089307494
144	0xbf059f1c	-0.52195907
145	0x3e818f0a	0.25304443
146	0x3f4b09d4	0.7931187
147	0xbe8ed795	-0.2789885
148	0x3e1f6982	0.15567592
149	0x3ef4f6ec	0.47844636
150	0xbe709481	-0.2349415
151	0x3e5ccce9	0.21562542
152	0xbeaf6b1c	-0.34261405
153	0x3c60bcfa	0.0137169305
154	0x3f5e7c82	0.86908734
155	0x3f3f5ec2	0.74753964
156	0x3eef396b	0.46723494
157	0x3f2e5323	0.68095607
158	0xbe6d64d6	-0.23182997
159	0x3f15abc9	0.5846525
160	0x3ea7436a	0.3266862
161	0x3f522d8a	0.8210074
162	0x3f506340	0.81401443
163	0xbea80099	-0.32812956
164	0x3ed67174	0.41883433
165	0x3d9f60aa	0.07782109
166	0x3efff782	0.4999352
167	0x3eef8136	0.46778268
168	0xbec67cbb	-0.38767037
169	0x3ec2ec8d	0.380711
170	0xbf04444c	-0.5166671
171	0xbee787d2	-0.4522081
172	0x3f5e272b	0.86778516
173	0x3f384bc4	0.7199061
174	0x3f048291	0.5176173
175	0x3f40cbb1	0.7531081
176	0xbe9d59de	-0.30732626
177	0x3f474baf	0.7784986
178	0x3e2586ae	0.16164657
179	0xbdccce53	-0.10000291
180	0xbda8fc43	-0.0825124
181	0x3f4ca410	0.7993784
182	0x3f175dcd	0.59127504
183	0x3f28182a	0.6566187
184	0x3ecbce22	0.39805704
185	0x3f19d363	0.60088176
186	0x3f5503dd	0.8320902
187	0xbeb60ebb	-0.35558113
188	0xbf0af733	-0.54283446
189	0xbe320210	-0.173836
190	0xbe0eb5fc	-0.13936609
191	0x3f01fbb5	0.507747
192	0x3f334bb2	0.70037377
193	0xbe8df62b	-0.27726874
194	0x3f41dc75	0.75727016
195	0x3f40b5bd	0.7527731
196	0xbf01547a	-0.50519526
197	0x3f51441d	0.8174456
198	0x3dc89f49	0.09796006
199	0xbe50db16	-0.20396075
200	0xbf064f58	-0.5246482
201	0x3db725a7	0.089427285
202	0x3df47880	0.11937046
203	0x3f34e8cc	0.7066772
204	0xbe996a0e	-0.29963726
205	0x3f1c09d7	0.60952514
206	0x3f67fd7e	0.90621173
207	0x3f4e27e4	0.8052962
208	0xbb11b50f	-0.0022233163
209	0x3c18bc31	0.009322212
210	0x3c9b54a1	0.018961253
211	0xbf00823a	-0.5019871
212	0x3f17d6c4	0.5931208
213	0x3f423151	0.758565
214	0x3f201fb4	0.62548375
215	0xbe5b1ef3	-0.21398525
216	0x3edcb130	0.43103933
217	0xbea31ba7	-0.31857035
218	0x3f1f97c9	0.6234098
219	0xbed3d225	-0.41371265
220	0xbdc599b5	-0.09648458
221	0x3ec04a74	0.37556803
222	0xbe292245	-0.16516979
223	0x3f127a80	0.5721817
224	0x3c06beae	0.0082241725
225	0xbe484182	-0.19556239
226	0xbecc7ca7	-0.39938852
227	0xbe9ddf6a	-0.30834514
228	0x3f6bfd38	0.92183256
229	0x3f4a2065	0.7895568
230	0x3eba49a9	0.36384323
231	0x3e212708	0.15737545
232	0xbdfad80d	-0.1224824
233	0x3f32fd58	0.6991782
234	0x3df123ca	0.11774404
235	0xbe4bb119	-0.19891776
236	0xbebcf0c4	-0.3690244
237	0xbd573393	-0.05253942
238	0xbcd373e4	-0.025812097
239	0x3f44436c	0.7666538
240	0x3f5e1e57	0.86765045
241	0x3f2da466	0.6782898
242	0xbe028e98	-0.12749708
243	0x3f61b8a5	0.8817237
244	0x3f19ce18	0.600801
245	0xbef59b49	-0.47970036
246	0xbf179cb1	-0.5922347
247	0x3f2aebf6	0.667663
248	0xbe6d552b	-0.2317702
249	0xbe366961	-0.17813636
250	0xbe0c7efa	-0.13720313
251	0xbece1fe5	-0.4025871
252	0x3ed8791a	0.42279893
253	0x3efb4bfc	0.4908141
254	0x3ed50a96	0.4160964
255	0x3f06991f	0.52577394

weight f4 [2, 256]
0	0xbf1ae8d5	-0.60511523
1	0xbee6d567	-0.45084688
2	0xbf89e786	-1.077378
3	0x3e7c26fb	0.24624245
4	0x3e92716b	0.28602156
5	0xbdf05e63	-0.11736753
6	0xbe2f65b7	-0.17128645
7	0x3e8e7d64	0.2783004
8	0xbf0a5fa2	-0.54052174
9	0xbf374dc5	-0.7160304
10	0x3ea6394a	0.32465583
11	0xbf19b3b5	-0.60039836
12	0x3bf39030	0.00743296
13	0x3e935387	0.28774664
14	0x3e7b4cce	0.24541017
15	0xbf129bd7	-0.5726904
16	0xbf330d22	-0.69941914
17	0x3e44fb90	0.19236588
18	0x3e7160e5	0.23572119
19	0xbe8bfb9d	-0.27340403
20	0xbf0d7674	-0.5525887
21	0x3e978d23	0.29599866
22	0x3e50e1f5	0.20398696
23	0x3e5daa55	0.21647008
24	0xbf098b5c	-0.5372827
25	0x3e6e98c5	0.23300464
26	0x3e562b94	0.20915061
27	0x3e65037b	0.22364609
28	0x3e83946d	0.25699177
29	0x3e61ce56	0.22051367
30	0x3e73ba92	0.2380164
31	0x3e9058b6	0.2819268
32	0x3e3181ab	0.1733462
33	0xbe989590	-0.29801607
34	0xbed6945e	-0.4191007
35	0x3e864e9a	0.26231843
36	0xbf017822	-0.50573933
37	0x3e4618bf	0.19345377
38	0x3e9de4cc	0.3083862
39	0x3e74a51b	0.23891108
40	0x3e34d4d8	0.17659318
41	0x3e557ebe	0.2084913
42	0x3da3daa9	0.080006905
43	0x3e8f81f1	0.28028825
44	0x3e85ebcf	0.2615647
45	0xbec03ce7	-0.37546465
46	0x3e852f42	0.26012617
47	0x3ea67e97	0.32518455
48	0xbee51703	-0.4474412
49	0xbeb7814c	-0.35840833
50	0x3e665833	0.22494583
51	0xbf05bc6c	-0.52240634
52	0x3e863818	0.2621467
53	0xbeab9708	-0.33513665
54	0x3e8aeeb8	0.27135253
55	0x3e95104a	0.2911399
56	0x3ea5a6c6	0.323538
57	0x3e75981c	0.23983806
58	0xbe6def0f	-0.23235725
59	0xbc7eb1bd	-0.015545306
60	0xbeed64dc	-0.46366012
61	0xbe0cfba1	-0.13767864
62	0x3eb22941	0.347971
63	0xbe5c2092	-0.214968
64	0x3c325c28	0.01088623
65	0xbf439f68	-0.7641511
66	0xbd7792b2	-0.060442634
67	0xbebd92a7	-0.3702595
68	0xbf604819	-0.8761001
69	0x3f10713a	0.5642277
70	0xbe6355d5	-0.22200711
71	0xbf2d5835	-0.6771272
72	0x3e9b5e98	0.30345607
73	0x3e980778	0.29693198
74	0xbf60f69c	-0.87876296
75	0x3e61625d	0.22010179
76	0xbf368088	-0.71289873
77	0x3e2bb683	0.16768841
78	0xbe3aaa29	-0.18228973
79	0xbf062dc3	-0.52413577
80	0x3e1e0bdf	0.15434216
81	0xbf08c6df	-0.53428453
82	0xbec1afe8	-0.37829518
83	0x3eab7216	0.33485478
84	0xbf13408e	-0.5752038
85	0x3e5656c4	0.20931536
86	0x3e9cb1a9	0.30604294
87	0x3e62653c	0.2210893
88	0x3e8903a3	0.26760587
89	0xbf2920b9	-0.66065556
90	0x3e33b671	0.17550065
91	0x3e9de09a	0.3083542
92	0xbf6c69da	-0.92349017
93	0x3e826817	0.2547004
94	0x3e2db1e5	0.16962393
95	0xbee264fa	-0.44217664
96	0x3ea885a3	0.32914457
97	0xbee11c29	-0.43966797
98	0xbf0d9304	-0.55302453
99	0x3e952776	0.2913167
100	0x3e74387a	0.23849669
101	0xbf1f3b37	-0.6219973
102	0xbd283299	-0.04106388
103	0x3e3a56a2	0.1819711
104	0x3e8dc1dd	0.27686968
105	0x3e85bc34	0.2612015
106	0xbe9d5914	-0.30732024
107	0xbf380c3f	-0.71893686
108	0xbec842cc	-0.39113462
109	0x3e90dab3	0.28291854
110	0xbefc2c36	-0.4925248
111	0xbf2a608e	-0.6655358
112	0x3e64df7b	0.22350876
113	0xbe3bf16c	-0.18353814
114	0x3e665529	0.22493424
115	0xbf2c6dfc	-0.6735532
116	0x3ea7d990	0.32783175
117	0x3e8b0252	0.27150208
118	0xbf15f435	-0.58575755
119	0x3e824f9d	0.25451365
120	0x3e8065e3	0.25077733
121	0x3e858cb2	0.26083905
122	0x3eb8c10b	0.3608478
123	0x3ea22029	0.3166516
124	0x3e671035	0.22564776
125	0xbed39275	-0.41322675
126	0xbf13133b	-0.5745122
127	0x3e53cf38	0.20684516
128	0x3e94c5fc	0.290573
129	0xbe4f2205	-0.20227821
130	0xbf238ff9	-0.6389156
131	0xbf3e6fe4	-0.7438948
132	0xbf1bfda5	-0.60933906
133	0x3e2409af	0.16019319
134	0xbe953f35	-0.29149786
135	0xbf04b065	-0.51831657
136	0xbeec622c	-0.4616865
137	0x3e6681ef	0.22510503
138	0xbf49e651	-0.7886706
139	0x3e591f9c	0.21203464
140	0x3e7d477f	0.24734305
141	0x3e7f7344	0.24946314
142	0x3e913efa	0.2836836
143	0xbf22fc09	-0.63665825
144	0xbedb592f	-0.4284148
145	0x3ead8211	0.33888295
146	0x3e71db7c	0.23618883
147	0xbf777d09	-0.96675164
148	0xbf00f9ba	-0.5038105
149	0x3e919aaa	0.28438312
150	0x3e18578d	0.14877148
151	0x3eb277cb	0.3485702
152	0xbf5f45fb	-0.87216157
153	0xbefb8f09	-0.49132565
154	0x3e718d70	0.2358911
155	0x3eac5c03	0.3366395
156	0x3e826c38	0.2547319
157	0x3ea1d73f	0.31609532
158	0xbee7f5eb	-0.45304808
159	0x3e90b7e2	0.2826529
160	0x3eb7a51a	0.3586815
161	0x3e8b9932	0.27265316
162	0x3ea11f53	0.3146921
163	0xbf0e1af3	-0.5550987
164	0xbd0b9402	-0.034076698
165	0xbe951d0e	-0.2912373
166	0x3eb175d3	0.34660205
167	0xbe91b57f	-0.28458783
168	0xbd042e69	-0.032270823
169	0x3e18d202	0.14923862
170	0xbf5d6ca8	-0.8649392
171	0xbf2098dc	-0.62733245
172	0x3e54c9d6	0.2078012
173	0x3e5a2591	0.21303393
174	0x3e0f50c1	0.13995649
175	0x3e8002cf	0.25002143
176	0xbed6b2f9	-0.4193342
177	0x3e900d67	0.28135225
178	0xbec619ee	-0.38691658
179	0xbed53625	-0.41642871
180	0xbe953a81	-0.29146197
181	0x3e75fc75	0.24022086
182	0x3e469150	0.1939137
183	0x3e8981ef	0.26856944
184	0x3ea205cc	0.31645048
185	0x3e6bb464	0.23018032
186	0x3e99a2d3	0.30007038
187	0xbedf786c	-0.43646562
188	0xbebf7d34	-0.3740021
189	0xbd847374	-0.064673334
190	0xbe7a7cf0	-0.24461722
191	0x3e592064	0.21203762
192	0x3e9fc50d	0.31205025
193	0xbf25f215	-0.6482251
194	0x3e5c620e	0.2152178
195	0x3e96784d	0.29388657
196	0xbf0f5547	-0.559895
197	0x3e7413e8	0.23835719
198	0x3e61a7de	0.22036693
199	0xbebdf5a2	-0.37101465
200	0xbf0e4517	-0.5557417
201	0x3e144efd	0.14483257
202	0x3e300a8f	0.17191528
203	0x3e8aa2b0	0.27077246
204	0xbf158eb8	-0.58420897
205	0x3eac52b7	0.33656856
206	0x3e8f465a	0.2798336
207	0x3e56dd3e	0.20982835
208	0x3ee595e1	0.4484091
209	0xbe91eb1f	-0.28499696
210	0xbeb98de4	-0.36241066
211	0xbf28cd74	-0.65938497
212	0x3ea38bf7	0.31942722
213	0x3e85ae0c	0.2610935
214	0x3e167211	0.1469195
215	0xbe6244af	-0.22096513
216	0x3eaeca7f	0.34138867
217	0xbf0919b4	-0.53554845
218	0x3df58796	0.119887516
219	0xbecf3ea7	-0.40477487
220	0xbf2e30e8	-0.68043375
221	0x3e9d2605	0.3069307
222	0xbf313f38	-0.6923709
223	0x3e9cd8c6	0.30634135
224	0xbf29c9da	-0.66323626
225	0xbef404ff	-0.47660062
226	0xbf18f503	-0.5974886
227	0xbeac5791	-0.33660558
228	0x3e8f827b	0.28029236
229	0x3e9644f6	0.29349488
230	0xbef90b38	-0.48641372
231	0xbf193491	-0.59845835
232	0xbf07a2ec	-0.52982974
233	0x3e869571	0.2628589
234	0x3e33ebce	0.17570421
235	0xbe0a624c	-0.1351406
236	0xbd5b09e4	-0.05347623
237	0xbe85cffa	-0.26135236
238	0xbf23e0e8	-0.64015055
239	0x3e790873	0.2431963
240	0x3e881ee0	0.26586056
241	0x3e33ab3d	0.17545791
242	0xbecb64ba	-0.39725286
243	0x3e66caf4	0.22538358
244	0x3e7179a5	0.2358156
245	0xbeecc9cb	-0.46247706
246	0x3e620d20	0.2207532
247	0x3e9313bf	0.28726003
248	0xbf566f8b	-0.8376395
249	0x3c405753	0.01173957
250	0xbea8470b	-0.328667
251	0xbf138835	-0.5762971
252	0x3ec25e07	0.37962362
253	0xbe7f4cd8	-0.24931657
254	0x3e565b4a	0.20933262
255	0x3e07739a	0.13227692

bias f4 [2]
0	0x3e698517	0.22804676
1	0x3ead26a3	0.3381854
